outputs/model_1/model_1_weights.pth (torch, 24215 bytes, 5 tensors)

fc1.weight f4 [60, 30]
0.140635 0.1447933 -0.046987604 0.16358547 -0.048846208 0.043518454 -0.08293548 0.10429765
0.17807089 -0.13091822 0.16291162 0.04578771 0.13663799 0.022620576 0.08566986 -0.021446612
0.13279624 0.011723105 -0.08131024 0.046970285 -0.09479301 -0.013120534 -0.08209496 0.09689509
-0.12926823 -0.08382384 -0.057255812 -0.12764461 -0.0027486843 -0.18612854 0.16748968 -0.15040824
0.13995467 0.02966435 -0.05653055 0.11992319 0.012567068 0.13780439 0.0033673455 -0.07794739
0.054009918 -0.04680377 0.07989336 0.15846746 0.10184729 -0.09489803 0.10024869 0.0480101
0.08689949 -0.11042389 -0.18264149 -0.07899446 -0.12924153 0.15825967 0.036650628 0.073814236
0.06637231 0.0062735416 0.14543104 -0.1390966 0.015761655 -0.12679355 0.057695318 -0.061097357
0.054827232 -0.04351133 0.15218644 -0.107722946 -0.09765573 -0.10239053 0.16491672 0.062165163
0.17536867 -0.15082678 -0.18439955 -0.13795307 -0.120324925 0.06828119 0.06622014 0.15103114
-0.089590706 -0.119957864 0.09579646 -0.07907773 0.11266734 -0.0453604 0.10061078 -0.14916211
-0.10029414 0.057641532 0.041205693 -0.046888396 0.11085592 0.123650335 -0.13030538 -0.0992019
0.17004655 -0.06158557 -0.06554105 -0.17526028 -0.10737485 0.04552478 -0.0238248 -0.13789602
0.0064040287 -0.12562288 -0.15263568 -0.09826439 -0.15395951 -0.11342993 0.18698867 0.034741804
0.05556193 -0.16992483 -0.11936632 -0.06376425 0.026803933 -0.15984477 -0.07359573 -0.10838698
0.0021698307 -0.07410858 -0.014197127 -0.12555121 -0.11514768 -0.10129178 -0.07260483 -0.1403314
0.13910252 -0.054400444 0.15820199 0.048117027 -0.15733695 0.120891936 -0.051662035 -0.0783954
-0.1475778 -0.17355168 0.047920976 -0.03379038 0.083580755 -0.16767138 0.13528986 -0.13394155
-0.033597194 0.042034164 0.103089094 0.15215352 0.17550519 -0.15419112 0.05190637 -0.08641247
-0.027841713 -0.13971452 0.16909832 -0.12574595 0.08643101 0.06515287 0.048828352 -0.10948438
0.16833276 0.03717858 0.016503688 -0.16652966 0.07793982 -0.036278255 -0.082654804 0.16080476
0.03876545 -0.10246955 -0.092142425 -0.022596886 0.105245784 -0.046341594 -0.1040158 -0.062511474
-0.14037468 0.068974905 0.14833015 -0.17870125 0.049299315 0.09504211 0.033879533 -0.06624029
0.09601234 0.099255584 0.06663065 -0.03616322 -0.046564523 0.019710561 -0.02695034 -0.05293417
0.11701509 0.15544507 -0.018768461 -0.04354669 0.004171907 -0.010993195 0.044469744 0.048488434
-0.17177539 -0.06697767 0.15376928 0.06759198 -0.0057900124 -0.11808705 -0.115743846 -0.16213436
-0.06434244 0.063172 0.11859058 0.08721952 -0.16449228 -0.12533644 -0.031535216 0.17981572
0.027549699 -0.056547474 0.09063724 -0.0598243 -0.11454545 0.14257556 -0.08043161 -0.027041728
-0.1774944 0.12616548 0.14087617 0.06106869 -0.117061794 -0.18862422 -0.14800389 0.13713118
0.083884194 0.1314033 0.10992436 0.034140214 -0.0039162575 -0.14136486 -0.17281689 -0.16868821
0.07696155 -0.110058 -0.053738263 -0.10302627 -0.029744916 -0.1084847 -0.14763084 0.05953533
-0.08808783 0.081307516 -0.06218643 -0.14222564 -0.045015756 -0.099665076 -0.05966276 -0.19489546
00000000: 9f02 103e b244 143e 1376 40bd f382 273e
00000010: f612 48bd 6840 323d 14da a9bd 029a d53d
00000020: 3758 363e 6d0f 06be 4ed2 263e e58b 3b3d
00000030: d4ea 0b3e c94e b93c ae73 af3d ceb0 afbc
00000040: bdfb 073e 4412 403c fc85 a6bd ea63 403d
00000050: d622 c2bd 82f7 56bc 6721 a8bd ef70 c63d
00000060: e45e 04be d5ab abbd 1285 6abd 45b5 02be
00000070: 4523 34bb 7b98 3ebe 6a82 2b3e 9e04 1abe
00000080: 4750 0f3e a702 f33c 948c 67bd 4a9a f53d
00000090: 1be6 4d3c 981c 0d3e afae 5c3b e2a2 9fbd
000000a0: 8139 5d3d 4fb5 3fbd 219f a33d 4b45 223e
000000b0: 5095 d03d e659 c2bd 2f4f cd3d 3da6 443d
000000c0: 5cf8 b13d ec25 e2bd 5f06 3bbe d9c7 a1bd
000000d0: e457 04be d30e 223e f81e 163d eb2b 973d
000000e0: 35ee 873d 4892 cd3b e0eb 143e 576f 0ebe
000000f0: 961e 813c 2bd6 01be ed51 6c3d 3941 7abd
00000100: 8592 603d f038 32bd c3d6 1b3e d99d dcbd
00000110: baff c7bd 20b2 d1bd eedf 283e e6a0 7e3d
00000120: d893 333e 5672 1abe 3cd3 3cbe 9243 0dbe
00000130: ea6c f6bd 02d7 8b3d 6d9e 873d e8a7 1a3e
00000140: 557b b7bd 78ac f5bd ef30 c43d 81f3 a1bd
00000150: 22be e63d d4cb 39bd 060d ce3d f4bd 18be
00000160: 0467 cdbd 8719 6c3d 4dc7 283d 0c0e 40bd
00000170: 6e08 e33d 633c fd3d c66e 05be 5e2a cbbd
00000180: af20 2e3e 2741 7cbd 633a 86bd 6e77 33be
00000190: 58e7 dbbd 3178 3a3d 3a2c c3bc 9d34 0dbe
000001a0: e3d8 d13b 49a3 00be 874c 1cbe d73e c9bd
000001b0: 90a7 1dbe f34d e8bd f579 3f3e 6c4d 0e3d
000001c0: e894 633d c600 2ebe 5476 f4bd d596 82bd
000001d0: ec93 db3c 59ae 23be 5cb9 96bd fef9 ddbd
000001e0: b833 0e3b 3dc6 97bd 119b 68bc 7f90 00be
000001f0: 8cd2 ebbd 1172 cfbd d7b1 94bd 09b3 0fbe
00000200: e470 0e3e 00d3 5ebd b4ff 213e 5c16 453d
00000210: f01c 21be 3196 f73d 929b 53bd c48d a0bd
00000220: a31e 17be 88b7 31be c948 443d c867 0abd
00000230: 632c ab3d 0cb2 2bbe 6d89 0a3e f927 09be
00000240: 369d 09bd 042c 2c3d 6020 d33d 22ce 1b3e
00000250: a2b7 333e 47e4 1dbe c69b 543d 05f9 b0bd
00000260: 4e14 e4bc 5311 0fbe 1c28 2d3e 8cc3 00be
00000270: be02 b13d de6e 853d 3d00 483d 5939 e0bd
00000280: 6c5f 2c3e 9148 183d be32 873c c086 2abe
00000290: ea9e 9f3d 8298 14bd ec46 a9bd 01aa 243e
000002a0: 85c8 1e3d 8edb d1bd 2bb5 bcbd 1b1d b9bc
000002b0: 1a8b d73d afd0 3dbd 3c06 d5bd 0406 80bd
000002c0: 61be 0fbe b742 8d3d dce3 173e 76fd 36be
000002d0: 14ee 493d 70a5 c23d 44c5 0a3d fda8 87bd
000002e0: 1ea2 c43d 8346 cb3d a675 883d e21f 14bd
000002f0: 71ba 3ebd 0b78 a13c f6c6 dcbc 80d1 58bd
00000300: 9ca5 ef3d fe2c 1f3e 51c0 99bc 045e 32bd
00000310: 7eb4 883b cd1c 34bc e825 363d cf9b 463d
00000320: e3e5 2fbe 972b 89bd b275 1d3e aa6d 8a3d
00000330: 25ba bdbb a0d7 f1bd 1c0b edbd 8d06 26be
00000340: f8c5 83bd 5260 813d 9edf f23d 26a0 b23d
00000350: aa70 28be 3258 00be 122b 01bd 9d21 383e
00000360: e8af e13c 539e 67bd 04a0 b93d 530a 75bd
00000370: ce96 eabd 54ff 113e 54b9 a4bd 9d86 ddbc
00000380: 18c1 35be 8631 013e d841 103e 2a23 7a3d
00000390: 18be efbd b526 41be 558e 17be 1e6c 0c3e
000003a0: 7acb ab3d 968e 063e 0620 e13d 9cd6 0b3d
000003b0: f353 80bb f3c1 10be e9f6 30be 9abc 2cbe
000003c0: 049e 9d3d 1766 e1bd a71c 5cbd 70ff d2bd
000003d0: 9cab f3bc 3a2d debd 8a2c 17be 51db 733d
000003e0: 6467 b4bd 8e84 a63d 33b7 7ebd 99a3 11be
000003f0: 7162 38bd 341d ccbd f060 74bd ad92 47be

fc1.bias f4 [60]
-0.10441713 -0.13441962 0.1091467 -0.024260558 -0.017069891 -0.037776727 -0.08694955 0.032212004
0.15123475 -0.10477896 0.011863648 -0.14092022 -0.07662506 0.16416414 0.0011182325 0.17005557
-0.023370933 -0.089271985 -0.10601673 0.16005602 -0.1413131 0.09024644 0.045795687 0.054746367
0.10341609 -0.045757543 0.1188993 -0.14499003 -0.061207682 0.1472588 0.057749506 -0.025865821
-0.041610964 -0.08957528 0.11250218 -0.007474639 -0.009267869 0.040229905 0.13463761 -0.09574648
-0.06477361 0.12547773 0.092549235 -0.091080524 -0.18379372 0.03681493 0.099917434 0.04416276
0.12432041 -0.15003027 0.08855795 -0.10832857 0.10344036 0.13367191 0.0590053 0.14781341
-0.12152181 -0.16999646 -0.17011426 0.10804616
00000000: a6d8 d5bd 4ca5 09be 4e88 df3d 14be c6bc
00000010: 28d6 8bbc c5bb 1abd 9b12 b2bd bcf0 033d
00000020: 48dd 1a3e 5a96 d6bd bf5f 423c 644d 10be
00000030: 99ed 9cbd a51a 283e a891 923a 0c23 2e3e
00000040: 6674 bfbc 3bd4 b6bd 4d1f d9bd bae5 233e
00000050: 62b4 10be 20d3 b83d 4294 3b3d ba3d 603d
00000060: d1cb d33d 436c 3bbd 7a81 f33d 4478 14be
00000070: e8b4 7abd 03cb 163e bf8a 6c3d 8fe4 d3bc
00000080: 4270 2abd 3f73 b7bd 8b67 e63d d1ed f4bb
00000090: 43d8 17bc 1dc8 243d 71de 093e bb16 c4bd
000000a0: 07a8 84bd 3c7d 003e 748a bd3d 6d88 babd
000000b0: 6c34 3cbe 41cb 163d 83a1 cc3d 03e4 343d
000000c0: b39b fe3d 89a1 19be df5d b53d 5fdb ddbd
000000d0: 8ad8 d33d 4ae1 083e 8baf 713d 665c 173e
000000e0: 6de0 f8bd 8d13 2ebe 6f32 2ebe 4e47 dd3d

fc2.weight f4 [60, 60]
0.048216216 -0.08848766 0.06889812 0.11509491 -0.12137909 0.1024245 0.017966025 0.01164466
0.12369887 0.12033214 0.060417116 0.108513296 0.06467594 0.024458773 -0.106426135 0.025760146
-0.092942104 0.032707773 0.01903438 0.0076042716 -0.09163994 -0.076173574 0.09199961 0.0649515
0.074316576 -0.036196247 -0.015897898 -0.034220237 0.093053006 -0.06134804 0.08594066 0.095979765
-0.10969432 0.009354954 -0.022215376 -0.06930326 0.065414205 -0.016898263 0.119445674 -0.07831119
0.055203523 -0.105418205 -0.05419718 0.006694736 0.10084614 0.07291405 -0.100281864 0.013877677
-0.0754671 0.014326183 -0.10857179 -0.041858215 0.09382792 -0.115289845 -0.122040145 0.024455654
0.017045446 -0.025691206 0.12017539 -0.06180834 -0.078910545 -0.097141124 -0.026340557 -0.036284532
0.07422358 -0.009943257 0.041556012 -0.053403758 0.10189891 0.106205314 -0.11637846 -0.032714557
-0.11270595 0.05242657 -0.11237197 -0.06163046 0.128084 -0.12234197 0.09629377 0.009028888
0.10391046 -0.0678281 0.081981055 0.014659066 0.006907353 0.08914434 -0.122137696 -0.10461596
0.119936064 -0.07872783 -0.09255176 -0.00851905 -0.042004213 -0.01959972 -0.08795312 0.048354156
-0.111738406 0.009717857 0.0758942 0.02410399 0.014257064 0.013568187 -0.038675286 -0.02213892
-0.056684025 -0.0872787 -0.07179888 0.12830582 -0.023411298 0.043478414 0.08829702 -0.009621532
-0.06981026 -0.089474596 -0.04715538 0.046536725 -0.109330565 -0.016470708 0.046343822 0.101790726
0.037533637 0.021204486 0.08368918 0.06516174 0.03637806 -0.04639892 -0.10344866 -0.025476102
-0.027265692 0.006658033 -0.016701872 0.05019449 0.07772452 -0.053767335 -0.12432414 -0.06599131
-0.059855804 0.07324519 -0.08329113 -0.012953729 -0.028423985 -0.07878754 0.062209543 -0.054236982
-0.0064867344 -0.090797365 -0.011930362 0.017021019 -0.009972184 -0.044346746 0.03810082 -0.034077503
-0.07422271 -0.09759459 -0.02819495 -0.12220132 0.10701857 -0.064249426 -0.05399845 0.010721042
0.031078933 -0.014086085 0.08407916 -0.07558814 0.04840625 -0.0021831272 -0.10971345 -0.05162768
0.03259328 0.024481578 0.093610466 0.08574365 -0.068461396 -0.05511896 -0.029317018 -0.09248977
-0.036446117 -0.10495551 0.043822777 0.081121564 0.009194184 -0.09284235 -0.102818646 -0.047035113
0.034931965 -0.0018554948 0.027413763 0.12571213 0.0548911 0.026959129 -0.032757066 0.055316936
0.037275936 -0.118044704 -0.08035173 0.0032344554 0.05519571 0.077930436 -0.070495434 -0.13333642
-0.0031790861 -0.019004246 0.03706849 -0.031431675 0.09014223 0.012519042 0.094426624 -0.08363822
0.04592125 0.028027833 -0.062012006 0.060200177 -0.13489339 0.097932465 0.008179542 0.01499639
0.05036797 0.014089416 0.05514517 0.08190295 -0.09594154 0.08455365 -0.025845248 -0.017516723
0.023316259 0.10240291 -0.075128295 -0.085712515 0.07917391 -0.0663231 0.055491038 -0.009490369
0.036382362 0.102885194 -0.06340498 -0.054154307 0.060597993 0.015274315 -0.015764376 -0.12681013
0.108581536 -0.0060106553 -0.025251035 -0.05196646 -0.027030248 0.061266266 -0.0015375215 0.111959025
-0.009659061 -0.0187739 0.072219394 -0.0053950897 -0.028995048 0.04246931 0.10080335 0.032572173
00000000: 5e7e 453d 0539 b5bd 751a 8d3d e1b6 eb3d
00000010: 9a95 f8bd f0c3 d13d 7c2d 933c 3ec9 3e3c
00000020: d555 fd3d b270 f63d f077 773d 383c de3d
00000030: d274 843d c45d c83c f2f5 d9bd f106 d33c
00000040: 6e58 bebd 96f8 053d fded 9b3c 412d f93b
00000050: b9ad bbbd e400 9cbd 4b6a bc3d 4b05 853d
00000060: 4a33 983d 8442 14bd 4f3c 82bc 852a 0cbd
00000070: 9392 be3d 1548 7bbd a801 b03d 0a91 c43d
00000080: 6aa7 e0bd 8545 193c 05fd b5bc deee 8dbd
00000090: e2f7 853d 3a6e 8abc ef9f f43d 9e61 a0bd
000000a0: 171d 623d 80e5 d7bd ddfd 5dbd 845f db3b
000000b0: 6c88 ce3d f653 953d 9460 cdbd 325f 633c
000000c0: 7f8e 9abd 5eb8 6a3c e35a debd 8573 2bbd
000000d0: da28 c03d 151d ecbd 2ff0 f9bd 3957 c83c
000000e0: e4a2 8b3c 5d76 d2bc 841e f63d be2a 7dbd
000000f0: da9b a1bd edf1 c6bd 27c8 d7bc 179f 14bd
00000100: 8802 983d 0be9 22bc a336 2a3d e6bd 5abd
00000110: 60b0 d03d 2c82 d93d d457 eebd b3ff 05bd
00000120: 61d2 e6bd 3ebd 563d 4723 e6bd 3970 7cbd
00000130: 7428 033e 6d8e fabd ab35 c53d e7ed 133c
00000140: 02cf d43d 75e9 8abd afe5 a73d 942c 703c
00000150: 1457 e23b 4f91 b63d 5423 fabd e440 d6bd
00000160: 0aa1 f53d 0e3c a1bd c78b bdbd 7c93 0bbc
00000170: 9c0c 2cbd 988f a0bc c420 b4bd 020f 463d
00000180: 1bd7 e4bd a637 1f3c 6b6e 9b3d bb75 c53c
00000190: 7696 693c 1a4d 5e3c fa69 1ebd ae5c b5bc
000001a0: 822d 68bd 2dbf b2bd 4b0b 93bd 9a62 033e
000001b0: 0dc9 bfbc 6c16 323d 11d5 b43d a1a3 1dbc
000001c0: aef8 8ebd 753e b7bd 0026 41bd 4b9d 3e3d
000001d0: b4e8 dfbd 94ed 86bc 05d3 3d3d a877 d03d
000001e0: dfbc 193d 08b5 ad3c 3c65 ab3d 8573 853d
000001f0: 2901 153d cb0c 3ebd e4dc d3bd 42b3 d0bc
00000200: 4d5c dfbc a12b da3b 5dd2 88bc bd98 4d3d
00000210: 082e 9f3d 233b 5cbd a89d febd 7426 87bd
00000220: 5c2b 75bd 9301 963d 8a94 aabd e13b 54bc
00000230: 6bd9 e8bc 5d5b a1bd 6fcf 7e3d 9927 5ebd
00000240: ac8e d4bb f8f3 b9bd 9177 43bc aa6f 8b3c
00000250: 5f62 23bc efa4 35bd 9b0f 1c3d da94 0bbd
00000260: 1402 98bd acdf c7bd 19f9 e6bc b044 fabd
00000270: 8d2c db3d 3495 83bd 7b2d 5dbd 4fa7 2f3c
00000280: 3f99 fe3c 53c9 66bc b231 ac3d f4cd 9abd
00000290: a245 463d cc12 0fbb 72b1 e0bd 8c77 53bd
000002a0: 8880 053d 978d c83c d8b6 bf3d 5e9a af3d
000002b0: 7d35 8cbd 6bc4 61bd 3e2a f0bc 476b bdbd
000002c0: 8648 15bd eaf2 d6bd 837f 333d 1023 a63d
000002d0: 34a3 163c 2124 bebd 9592 d2bd e4a7 40bd
000002e0: d214 0f3d 1334 f3ba d492 e03c aeba 003e
000002f0: 7dd5 603d 64d9 dc3c 462c 06bd 0394 623d
00000300: a7ae 183d 6cc1 f1bd 738f a4bd 28f9 533b
00000310: e614 623d fe99 9f3d e95f 90bd 5889 08be
00000320: 3758 50bb cbae 9bbc 21d5 173d 80be 00bd
00000330: 7d9c b83d ab1c 4d3c bf62 c13d 844a abbd
00000340: ec17 3c3d a09a e53c 4d00 7ebd 7694 763d
00000350: 7e21 0abe d190 c83d 7c03 063c 6bb3 753c
00000360: a54e 4e3d 4bd7 663c e7df 613d bcbc a73d
00000370: 007d c4bd 772a ad3d 6ab9 d3bc 3b7f 8fbc
00000380: bd01 bf3c 9eb8 d13d dddc 99bd 0b8a afbd
00000390: ee25 a23d 68d4 87bd 924a 633d 7e7d 1bbc
000003a0: ac05 153d 79b5 d23d 78da 81bd e8d0 5dbd
000003b0: 9a35 783d 1f41 7a3c 4b24 81bc 84da 01be
000003c0: ff5f de3d 08f5 c4bb 42db cebc c8da 54bd
000003d0: 8a6e ddbc 56f2 7a3d a986 c9ba c64a e53d
000003e0: 0a41 1ebc b9cb 99bc c3e7 933d 4bc9 b0bb
000003f0: 0687 edbc 4df4 2d3d fd71 ce3d 666a 053d

fc2.bias f4 [60]
-0.029030947 -0.06144726 -0.05485139 0.11012759 0.07757245 -0.11455727 -0.07995257 -0.0006846121
-0.0413734 -0.07175634 -0.12173131 0.08548525 0.07261634 0.03637325 -0.026142787 -0.12535559
-0.008526073 0.04440196 -0.030115765 0.09630279 0.032147113 0.015128627 0.051248606 0.062454995
-0.09531156 0.040723816 -0.11798912 0.005632478 -0.059306525 0.09666006 -0.1241701 0.054987684
-0.111670814 0.05790528 0.0352475 -0.036478505 0.029047351 0.12608916 0.077923834 -0.11384822
-0.040746424 0.12750709 0.020464022 0.03173461 0.007644649 -0.04662378 -0.033513036 -0.005552096
0.09892192 -0.043361142 -0.034575336 0.027040908 -0.040059246 0.12059364 0.092426926 0.012930012
-0.08288985 0.037568364 0.11239175 0.032605536
00000000: 4fd2 edbc 1fb0 7bbd daab 60bd 938a e13d
00000010: 4ede 9e3d 019d eabd 2cbe a3bd 8a77 33ba
00000020: 2777 29bd fdf4 92bd 444e f9bd e412 af3d
00000030: e0b7 943d 1efc 143d 6629 d6bc 375d 00be
00000040: f1b0 0bbc d4de 353d 56b5 f6bc 663a c53d
00000050: b1ac 033d 10de 773c 0fea 513d cfd0 7f3d
00000060: b532 c3bd 04ce 263d 48a4 f1bd a690 b83b
00000070: 66eb 72bd b6f5 c53d e54c febd c43a 613d
00000080: abb3 e4bd 162e 6d3d af5f 103d 7c6a 15bd
00000090: b6f4 ed3c 841d 013e 8896 9f3d 4129 e9bd
000000a0: b9e5 26bd 3891 023e 2aa4 a73c 27fc 013d
000000b0: f77f fa3b 94f8 3ebd f744 09bd 5bee b5bb
000000c0: 9397 ca3d 749b 31bd de9e 0dbd e584 dd3c
000000d0: 2a15 24bd ccf9 f63d 544a bd3d 67d8 533c
000000e0: 27c2 a9bd 49e1 193d a52d e63d 628d 053d

fc3.weight f4 [1, 60]
0.08197887 -0.063537754 -0.1199643 -0.07616219 -0.02766361 0.120646335 0.029859794 -0.027284684
-0.034963883 -0.031746496 -0.08292484 -0.09453411 0.0012030158 0.08395452 0.07420505 0.052149992
-0.14390346 0.08954688 0.12542929 -0.10183575 -0.040394265 0.17594874 -0.10951197 0.041329067
0.016099395 0.052948866 0.040827956 0.1553583 0.08593741 -0.13357756 0.07809874 -0.09915779
-0.09077732 0.0136211915 0.053482365 -0.14414488 -0.13892187 -0.077605985 -0.019566782 0.058404658
0.039462663 0.061996818 0.11715575 -0.12795521 -0.066024594 0.037034858 -0.19919695 0.08691753
0.014404035 -0.053650573 0.10893438 0.03910836 0.13248196 0.1360215 -0.073022164 0.14694077
0.011008301 -0.037799735 0.07166755 -0.08967239
00000000: 8ae4 a73d 1520 82bd d8af f5bd ecfa 9bbd
00000010: cc9e e2bc 6d15 f73d 879c f43c 2184 dfbc
00000020: 4a36 0fbd 9d08 02bd 80d4 a9bd 199b c1bd
00000030: 83ae 9d3a 59f0 ab3d d1f8 973d 3b9b 553d
00000040: 6e5b 13be 5b64 b73d 8970 003e 438f d0bd
00000050: 7574 25bd e82b 343e d047 e0bd ab48 293d
00000060: e1e2 833c e9e0 583d 373b 273d 3f16 1f3e
00000070: f4ff af3d 8ec8 08be 3bf2 9f3d 3d13 cbbd
00000080: 76e9 b9bd 6b2b 5f3c 5310 5b3d b79a 13be
00000090: 8941 0ebe e3ef 9ebd 844a a0bc b939 6f3d
000000a0: 9aa3 213d 60f0 7d3d 5bef ef3d b106 03be
000000b0: e737 87bd ddb1 173d 49fa 4bbe d101 b23d
000000c0: e7fe 6b3c b4c0 5bbd fd18 df3d 1630 203d
000000d0: 5aa9 073e 3849 0b3e a58c 95bd a477 163e
000000e0: 295c 343c e5d3 1abd 70c6 923d 28a6 b7bd
