outputs/model_1/model_1_weights.pth (torch, 24215 bytes, 5 tensors)

fc1.weight f4 [60, 30]
00000000: 8002 103e 553e 143e 3b81 40bd 2d7e 273e
00000010: ba18 48bd a557 323d 81db a9bd 9e96 d53d
00000020: 7e5a 363e 8b10 06be 62d8 263e 6491 3b3d
00000030: 41e8 0b3e 0330 b93c c870 af3d 07b8 afbc
00000040: 37f9 073e 5abf 3f3c 7f82 a6bd 1263 403d
00000050: f42b c2bd b2d7 56bc 6e23 a8bd 4a5e c63d
00000060: 6a5b 04be 3cb0 abbd 968d 6abd 67b7 02be
00000070: 8b5b 35bb ab9e 3ebe fa85 2b3e c801 1abe
00000080: ed4f 0f3e f605 f33c a782 67bd 33a3 f53d
00000090: 3444 4d3c ee16 0d3e 48fb 5a3b f5bc 9fbd
000000a0: aa3e 5d3d 93a5 3fbd 1ea6 a33d db40 223e
000000b0: 508e d03d 146b c2bd c64a cd3d 24c5 443d
000000c0: e7ed b13d b523 e2bd b60a 3bbe b9cc a1bd
000000d0: 8752 04be 380f 223e 6f06 163d 482b 973d
000000e0: 44fe 873d 6734 ce3b d3eb 143e f474 0ebe
000000f0: 5029 813c 06d9 01be 5f56 6c3d 9f3f 7abd
00000100: 9e98 603d 353b 32bd 2dd6 1b3e a9a0 dcbd
00000110: 1bfa c7bd efb2 d1bd eae0 283e 14a5 7e3d
00000120: e193 333e 9573 1abe 39d5 3cbe 4742 0dbe
00000130: f069 f6bd 62d2 8b3d 399f 873d 46a7 1a3e
00000140: c678 b7bd 75ab f5bd 4931 c43d 77f4 a1bd
00000150: 0dbb e63d 56ce 39bd 110b ce3d 64bf 18be
00000160: 7f69 cdbd 2a14 6c3d e6ce 283d c712 40bd
00000170: 8706 e33d 743d fd3d fa70 05be e02a cbbd
00000180: a920 2e3e b041 7cbd e438 86bd a775 33be
00000190: b8e6 dbbd cd71 3a3d c119 c3bc b633 0dbe
000001a0: c146 d23b 92a3 00be 874c 1cbe 6d3e c9bd
000001b0: b3a7 1dbe 9b4e e8bd 327b 3f3e 5d4c 0e3d
000001c0: 4499 633d f603 2ebe 8375 f4bd d29e 82bd
000001d0: 477e db3c aeae 23be 2abe 96bd c1f8 ddbd
000001e0: 03ec 0d3b 3fc7 97bd c886 68bc 258d 00be
000001f0: 36ca ebbd 5375 cfbd c1b7 94bd 31b0 0fbe
00000200: c16e 0e3e a6e7 5ebd 0afb 213e 1713 453d
00000210: 711d 21be f499 f73d 789a 53bd 148f a0bd
00000220: 111b 17be 69b4 31be c54c 443d f75d 0abd
00000230: 593a ab3d 83b5 2bbe b686 0a3e ce24 09be
00000240: aa9b 09bd fa3d 2c3d 9a26 d33d 4ecb 1b3e
00000250: 4dbb 333e e4e4 1dbe bfac 543d 76fe b0bd
00000260: fc24 e4bc a010 0fbe 8427 2d3e 06c2 00be
00000270: e3fc b03d 1075 853d fdea 473d f540 e0bd
00000280: e760 2c3e 7841 183d c713 873c 2989 2abe
00000290: cda1 9f3d faa2 14bd f845 a9bd 09ab 243e
000002a0: e6bf 1e3d 37dc d1bd 5eb6 bcbd 9e2b b9bc
000002b0: 308a d73d cec7 3dbd 8c07 d5bd e603 80bd
000002c0: 67c0 0fbe b245 8d3d ade8 173e d0fe 36be
000002d0: 1fff 493d 12a5 c23d cdc6 0a3d 26ae 87bd
000002e0: 05a7 c43d 474e cb3d cd74 883d d52e 14bd
000002f0: 25bf 3ebd c07c a13c deaa dcbc c5d9 58bd
00000300: 28a3 ef3d 5d2b 1f3e 7ad3 99bc f46a 32bd
00000310: 96fd 883b 1654 34bc f62b 363d ee93 463d
00000320: fbe8 2fbe 2b2e 89bd 0b77 1d3e dc69 8a3d
00000330: 607b bdbb 5ae3 f1bd 6711 edbd 6a03 26be
00000340: 2ac9 83bd 0762 813d bbdd f23d a89d b23d
00000350: 6473 28be 6164 00be 8930 01bd 2d29 383e
00000360: 95a0 e13c 57b7 67bd 65ac b93d 0002 75bd
00000370: 798c eabd de02 123e 95c1 a4bd ed7f ddbc
00000380: 1dc2 35be 0b2f 013e 8c3f 103e 091c 7a3d
00000390: dbb6 efbd 8c29 41be c48f 17be 2c6b 0c3e
000003a0: f7ce ab3d ea80 063e 9126 e13d 57b7 0b3d
000003b0: 41d3 80bb 15c2 10be f1fd 30be babd 2cbe
000003c0: a2a6 9d3d ae78 e1bd fc31 5cbd 8af0 d2bd
000003d0: fab6 f3bc cd27 debd 9f3a 17be a4e4 733d
000003e0: 4a84 b4bd 7965 a63d 7adc 7ebd bba1 11be
000003f0: 4e80 38bd e722 ccbd 2469 74bd 8297 47be
0.14063454 0.14476903 -0.046998244 0.16356726 -0.048851706 0.043540616 -0.0829382 0.104291186
0.17807958 -0.13092248 0.16293481 0.045792952 0.13662817 0.022605902 0.08566433 -0.021450056
0.13278662 0.011703337 -0.08130359 0.04696948 -0.0948104 -0.013112949 -0.08209883 0.09685953
-0.12925497 -0.083832234 -0.057263933 -0.12765275 -0.0027672972 -0.18615215 0.16750327 -0.15039742
0.13995333 0.029665928 -0.056521084 0.119940184 0.012528468 0.13778278 0.0033413935 -0.077997126
0.05401484 -0.046788763 0.07990669 0.15845053 0.10183394 -0.0949308 0.100240275 0.04803957
0.086879544 -0.11041967 -0.18265805 -0.07900376 -0.12922107 0.15826118 0.03662723 0.07381302
0.06640294 0.006292868 0.14543085 -0.13911802 0.01576677 -0.12680444 0.057699557 -0.06109583
0.054833047 -0.043513495 0.1521842 -0.10772831 -0.09764501 -0.10239207 0.16492048 0.06216915
0.1753688 -0.15083154 -0.18440713 -0.13794814 -0.12031925 0.06827237 0.06622166 0.15102872
-0.089585826 -0.119955935 0.09579713 -0.07907956 0.11266146 -0.045362793 0.100607045 -0.1491676
-0.100298874 0.057636417 0.04121294 -0.046892907 0.11085229 0.12365237 -0.13031378 -0.09920287
0.17004646 -0.061586082 -0.0655382 -0.1752535 -0.107373655 0.045518685 -0.023815991 -0.13789257
0.006417126 -0.12562397 -0.15263568 -0.0982636 -0.15396003 -0.11343118 0.18699339 0.034740794
0.055566087 -0.16993698 -0.11936476 -0.06377949 0.026793612 -0.15984604 -0.0736049 -0.10838462
0.0021655567 -0.0741105 -0.014192291 -0.12553842 -0.11513178 -0.101298 -0.07261611 -0.14032055
0.13909437 -0.054420136 0.1581842 0.04811391 -0.15733887 0.12089911 -0.051660985 -0.0783979
-0.14756419 -0.17353977 0.047924776 -0.033781018 0.08360738 -0.1676846 0.1352795 -0.13392946
-0.03359572 0.042051293 0.10310097 0.15214273 0.17551918 -0.15419346 0.051922556 -0.086422846
-0.027849667 -0.13971186 0.16909605 -0.12574014 0.08641984 0.065164685 0.048808087 -0.109498896
0.1683384 0.03717181 0.016488923 -0.16653885 0.07794533 -0.03628824 -0.082652986 0.1608087
0.038757227 -0.10247081 -0.09214471 -0.022603806 0.10524404 -0.046333127 -0.1040183 -0.062507436
-0.1403824 0.06898059 0.14834853 -0.17870641 0.049315568 0.09504141 0.033880997 -0.06625013
0.09602169 0.099270396 0.06662903 -0.036177475 -0.04656901 0.019712806 -0.026936945 -0.052942056
0.117010415 0.15543886 -0.018777598 -0.04355903 0.0041806204 -0.011006376 0.04447552 0.04848092
-0.17178719 -0.06698259 0.15377443 0.06758472 -0.0057825297 -0.11810942 -0.11575585 -0.1621224
-0.064348534 0.06317525 0.11858698 0.08721477 -0.16450268 -0.12538292 -0.031540427 0.17984457
0.027542392 -0.05657133 0.09066085 -0.05981636 -0.11452574 0.14258906 -0.08044735 -0.027038539
-0.1774983 0.12615602 0.14086741 0.061061893 -0.11704799 -0.18863505 -0.14800936 0.13712758
0.08389085 0.13135114 0.10993684 0.034110393 -0.0039314334 -0.14136536 -0.17284371 -0.1686925
0.07697798 -0.11009346 -0.053758606 -0.102997854 -0.029750336 -0.10847435 -0.14768456 0.05954422
-0.08814295 0.08124823 -0.06222198 -0.14221852 -0.045044236 -0.099675946 -0.059670582 -0.1949139

fc1.bias f4 [60]
00000000: abd9 d5bd 2da0 09be ef8a df3d 1baf c6bc
00000010: dbe6 8bbc 87a7 1abd f010 b2bd 1ee5 033d
00000020: d2e3 1a3e fa8f d6bd 7e8d 423c 264b 10be
00000030: 55e7 9cbd de1b 283e cd97 913a e11f 2e3e
00000040: 722a bfbc 58c3 b6bd f51a d9bd bae4 233e
00000050: feb3 10be a2d3 b83d fa96 3b3d 1c45 603d
00000060: 17d0 d33d eb6d 3bbd df84 f33d 0f78 14be
00000070: 3aac 7abd afd0 163e 9997 6c3d 36d7 d3bc
00000080: 3776 2abd b050 b7bd 3f69 e63d d616 f5bb
00000090: d7cc 17bc 0cc4 243d d3e0 093e 5115 c4bd
000000a0: d9a5 84bd 2b80 003e 3686 bd3d 0380 babd
000000b0: b034 3cbe eeda 163d 8ca3 cc3d e5e1 343d
000000c0: 4a9c fe3d 4fa4 19be 625a b53d 14d3 ddbd
000000d0: a2dc d33d 66e1 083e 2bb0 713d 185d 173e
000000e0: 63e2 f8bd 0f15 2ebe 782d 2ebe 1a49 dd3d
-0.104419075 -0.13440008 0.10915171 -0.024253419 -0.017077854 -0.037757423 -0.08694637 0.032200925
0.15125969 -0.1047668 0.011874555 -0.14091167 -0.076613106 0.1641688 0.0011107862 0.17004348
-0.02333567 -0.089239776 -0.10600845 0.16005221 -0.14131162 0.09024741 0.04579828 0.054753408
0.10342424 -0.045759123 0.118905775 -0.14498924 -0.061199404 0.14728044 0.057761762 -0.025859457
-0.041616645 -0.08950937 0.11250543 -0.007479529 -0.009265146 0.040226027 0.1346467 -0.09574378
-0.064769454 0.12548892 0.09254114 -0.091064475 -0.18379474 0.03682988 0.099921316 0.044160742
0.124321535 -0.15004085 0.0885513 -0.108312756 0.10344817 0.13367233 0.059005897 0.14781606
-0.12152555 -0.1700022 -0.17009532 0.10804959

fc2.weight f4 [60, 60]
00000000: 6688 453d 8f2d b5bd 051e 8d3d 3bb3 eb3d
00000010: 4d91 f8bd ddcb d13d f027 933c 1eb5 3e3c
00000020: 3e60 fd3d b274 f63d 6787 773d fd41 de3d
00000030: 2a80 843d aa6f c83c f9ec d9bd 88fe d23c
00000040: 145a bebd 1ce7 053d 63db 9b3c 6e67 f93b
00000050: 1bb2 bbbd 66fd 9bbd 5265 bc3d bd05 853d
00000060: e13d 983d 5246 14bd 1e12 82bc 3331 0cbd
00000070: 1e95 be3d 8654 7bbd 3009 b03d f998 c43d
00000080: 20a1 e0bd 20aa 193c d104 b6bc 30ee 8dbd
00000090: d904 863d 647d 8abc cfa8 f43d f563 a0bd
000000a0: 8c0e 623d 64e0 d7bd a2eb 5dbd f049 db3b
000000b0: e088 ce3d b759 953d 6d5c cdbd 4e51 633c
000000c0: 8b8e 9abd 8b08 6b3c 465c debd a478 2bbd
000000d0: 6d31 c03d b41e ecbd 2ef0 f9bd 025a c83c
000000e0: e1a1 8b3c ab81 d2bc e427 f63d ab07 7dbd
000000f0: 1e9c a1bd a8f2 c6bd d4c8 d7bc 2fa0 14bd
00000100: d402 983d 11e6 22bc a336 2a3d 94bf 5abd
00000110: dbae d03d be80 d93d 9257 eebd e700 06bd
00000120: f1d2 e6bd 85bd 563d f322 e6bd 5e74 7cbd
00000130: a527 033e 8d8f fabd 8634 c53d a8ec 133c
00000140: 83cd d43d fce9 8abd 89e3 a73d 7c24 703c
00000150: 934f e23b 0290 b63d a923 fabd 5c41 d6bd
00000160: fb9e f53d 6e3e a1bd 8b8d bdbd 9996 0bbc
00000170: b20b 2cbd c594 a0bc c51f b4bd 890a 463d
00000180: f6d7 e4bd e129 1f3c 1e6c 9b3d f475 c53c
00000190: 628b 693c aa3c 5e3c d36d 1ebd 4962 b5bc
000001a0: ac30 68bd 2dc0 b2bd 510c 93bd 7a62 033e
000001b0: eacc bfbc 9514 323d f3d1 b43d 09b2 1dbc
000001c0: 26f9 8ebd 6540 b7bd 7123 41bd 099d 3e3d
000001d0: dfe7 dfbd 37f4 86bc e3d0 3d3d 2b78 d03d
000001e0: ffbd 193d 2daf ad3c 2c63 ab3d da74 853d
000001f0: 56fa 143d ac11 3ebd b7dc d3bd 53ad d0bc
00000200: e661 dfbc fb16 da3b 9ad3 88bc 149a 4d3d
00000210: e12b 9f3d 7a3c 5cbd a39d febd 4726 87bd
00000220: b926 75bd ea02 963d bb94 aabd 8231 54bc
00000230: a0d9 e8bc 575a a1bd 76d1 7e3d 9326 5ebd
00000240: 1784 d4bb e5f3 b9bd 7c71 43bc 2d6f 8b3c
00000250: 6272 23bc d49f 35bd 6511 1c3d 5e94 0bbd
00000260: 4003 98bd 96e0 c7bd abf9 e6bc b944 fabd
00000270: 302d db3d c495 83bd d22c 5dbd ffa3 2f3c
00000280: b498 fe3c 60cf 66bc a731 ac3d d0cd 9abd
00000290: 5a47 463d 551f 0fbb e7b0 e0bd 6877 53bd
000002a0: cc81 053d fd8a c83c fbb7 bf3d c69b af3d
000002b0: c834 8cbd 8cc3 61bd a22e f0bc c06a bdbd
000002c0: a648 15bd 5ef2 d6bd 327e 333d bc23 a63d
000002d0: a99f 163c e726 bebd 5b92 d2bd a8a4 40bd
000002e0: c815 0f3d 7f38 f3ba b29d e03c 72bc 003e
000002f0: 42ca 603d e9d4 dc3c 2931 06bd 4f92 623d
00000300: 9ba2 183d 1dc2 f1bd 2991 a4bd 6106 543b
00000310: 4a15 623d 2ea2 9f3d b25d 90bd 018a 08be
00000320: 5644 50bb 33bb 9bbc fbcd 173d d3bb 00bd
00000330: 0797 b83d 5f2d 4d3c 6261 c13d 8546 abbd
00000340: 5511 3c3d 40ac e53c a501 7ebd 1195 763d
00000350: 3d21 0abe 538b c83d e314 063c 0bb5 753c
00000360: d247 4e3d abef 663c add3 613d c8bf a73d
00000370: 177a c4bd c228 ad3d e9bc d3bc 036e 8fbc
00000380: baf2 be3c 19b8 d13d d3db 99bd 5e88 afbd
00000390: 4026 a23d 08d7 87bd 5951 633d 236a 1bbc
000003a0: a901 153d ceb8 d23d 0fd8 81bd 0eca 5dbd
000003b0: 8133 783d 7949 7a3c ab2b 81bc d9db 01be
000003c0: a15f de3d 7012 c5bb 60db cebc c8d7 54bd
000003d0: e06e ddbc b8f2 7a3d 5721 c9ba 944c e53d
000003e0: 5f4f 1ebc 40cb 99bc ece7 933d 1fdd b0bb
000003f0: 7490 edbc baf4 2d3d b071 ce3d 7d6c 053d
0.048225783 -0.0884658 0.068904914 0.11508795 -0.12137089 0.10243962 0.01796338 0.011639861
0.12371872 0.120339766 0.060431864 0.1085243 0.06469758 0.024467308 -0.10640902 0.025756136
-0.09294525 0.032691106 0.01902551 0.0076112067 -0.0916483 -0.07616691 0.09199013 0.06495235
0.074336775 -0.036199875 -0.01587778 -0.034226608 0.093057856 -0.061359905 0.085955024 0.0959949
-0.10968232 0.00937894 -0.022219094 -0.06930196 0.06543893 -0.016905494 0.1194626 -0.07831565
0.055189654 -0.10540846 -0.054179795 0.0066921636 0.100847006 0.072925024 -0.100273944 0.013874365
-0.07546719 0.0143452985 -0.108574435 -0.0418631 0.09384427 -0.11529294 -0.12204014 0.024456982
0.017044963 -0.025696596 0.12019327 -0.06177489 -0.07891105 -0.09714252 -0.02634088 -0.036285575
0.074224144 -0.009942547 0.041556012 -0.05340536 0.10189601 0.10620259 -0.116377965 -0.032715704
-0.11270703 0.052426834 -0.11237135 -0.061634414 0.12808092 -0.122344114 0.09629159 0.009028591
0.10390761 -0.0678291 0.08197696 0.014657136 0.0069064586 0.08914186 -0.12213833 -0.10461685
0.11993214 -0.07873236 -0.09255513 -0.008519792 -0.04200334 -0.019602189 -0.08795122 0.04834989
-0.11174004 0.009714575 0.07588981 0.024104096 0.014254423 0.013564268 -0.038678955 -0.022141593
-0.056687042 -0.08728061 -0.071800835 0.12830535 -0.02341314 0.04347666 0.08829107 -0.009624966
-0.06981115 -0.08947829 -0.04715294 0.04653648 -0.10932898 -0.016473873 0.046341788 0.1017917
0.03753471 0.021201694 0.08368525 0.06516428 0.03637155 -0.046403572 -0.103448324 -0.025473272
-0.027268361 0.0066555715 -0.016702462 0.05019577 0.07772041 -0.053768612 -0.124324106 -0.06599098
-0.059851382 0.073247746 -0.08329149 -0.012951257 -0.028424084 -0.07878559 0.062211476 -0.054236006
-0.006485473 -0.09079722 -0.011928912 0.017020786 -0.009976001 -0.044341877 0.038102526 -0.03407704
-0.07422495 -0.09759633 -0.028195223 -0.12220139 0.10701978 -0.0642505 -0.053997822 0.010720252
0.031078674 -0.014087528 0.08407908 -0.07558787 0.04840789 -0.0021838744 -0.109712414 -0.051627547
0.032594487 0.024480337 0.09361263 0.08574633 -0.06846005 -0.05511813 -0.029319111 -0.092488766
-0.036446236 -0.104954466 0.04382152 0.081122845 0.009193339 -0.09284764 -0.10281821 -0.04703203
0.03493288 -0.0018556266 0.027418945 0.12571886 0.054880388 0.026956992 -0.032761727 0.055315312
0.037264448 -0.11804602 -0.080354996 0.0032352435 0.055196084 0.07794605 -0.07049121 -0.13333894
-0.0031779013 -0.019010162 0.037061673 -0.031429123 0.09013181 0.012523024 0.094424024 -0.0836306
0.045914967 0.028036237 -0.062013287 0.060200755 -0.13489242 0.09792199 0.008183691 0.014996777
0.050361462 0.014095227 0.05513351 0.08190876 -0.09593599 0.084550396 -0.025846915 -0.017508512
0.0233091 0.10240192 -0.07512631 -0.08570932 0.07917452 -0.06632811 0.0554975 -0.009485754
0.036378536 0.10289155 -0.06340038 -0.054147772 0.060595993 0.015276306 -0.015767893 -0.12681521
0.108580835 -0.006014161 -0.02525109 -0.051963598 -0.027030408 0.06126663 -0.0015345019 0.11196247
-0.009662478 -0.018773675 0.0722197 -0.0053974534 -0.028999545 0.042469718 0.10080278 0.032574166

fc2.bias f4 [60]
00000000: d49a edbc 68b7 7bbd 7ea9 60bd 3886 e13d
00000010: 3fdd 9e3d 9e98 eabd 08bd a3bd 9b7e 33ba
00000020: 1e77 29bd 6bf7 92bd ec49 f9bd cf08 af3d
00000030: c8b8 943d 5607 153d 4807 d6bc 165e 00be
00000040: 9aaf 0bbc 2ee8 353d 1b93 f6bc 7f33 c53d
00000050: 14b1 033d 76c4 783c d8e8 513d c4d6 7f3d
00000060: 7732 c3bd a6ce 263d cb9f f1bd e407 ba3b
00000070: 1ae6 72bd 23f3 c53d 644b febd a050 613d
00000080: 5bab e4bd 8031 6d3d a174 103d 4954 15bd
00000090: 42f7 ed3c 541f 013e 9d94 9f3d ae20 e9bd
000000a0: 59e9 26bd 6497 023e 50a7 a73c fc17 023d
000000b0: 40e8 fa3b 6ef3 3ebd 3449 09bd 805a b5bb
000000c0: 5697 ca3d e5a5 31bd 5aa1 0dbd da98 dd3c
000000d0: 3afc 23bd 6605 f73d af42 bd3d 791b 543c
000000e0: 5ec2 a9bd 99ed 193d 1537 e63d e18b 053d
-0.029004492 -0.061454207 -0.05484914 0.11011928 0.07757043 -0.11454891 -0.07995039 -0.0006847174
-0.041373365 -0.071760975 -0.121723026 0.08546602 0.07261807 0.03638395 -0.026126519 -0.12535891
-0.008525753 0.044410877 -0.030099442 0.09628963 0.032151297 0.015183559 0.051247448 0.062460676
-0.0953111 0.04072442 -0.11798056 0.00567721 -0.059301473 0.09665515 -0.12416723 0.05500853
-0.11165496 0.057908535 0.035267476 -0.036457334 0.029048566 0.12609607 0.077920176 -0.11383186
-0.04074988 0.12753063 0.020465523 0.031761155 0.007657081 -0.04661887 -0.033517078 -0.00553447
0.09892146 -0.0433711 -0.034577705 0.027050424 -0.040035464 0.120615765 0.092412345 0.012946003
-0.08289026 0.037580106 0.11240975 0.032604102

fc3.weight f4 [1, 60]
00000000: 572c a83d a91e 82bd 73b1 f5bd 14f6 9bbd
00000010: 5974 e2bc 651b f73d aead f43c 4787 dfbc
00000020: 0835 0fbd 6a0a 02bd e3dc a9bd 70da c1bd
00000030: bb5a a13a d8f5 ab3d 1232 983d 179d 553d
00000040: 0279 13be f969 b73d 8184 003e b2c3 d0bd
00000050: 2a9b 25bd 6d72 343e 658d e0bd df55 293d
00000060: 20df 833c 28cf 583d 8251 273d fc29 1f3e
00000070: ff0a b03d c0e1 08be 1bf6 9f3d 9238 cbbd
00000080: 0102 babd a95f 5f3c f774 5b3d 5ac2 13be
00000090: d25b 0ebe b305 9fbd 4b86 a0bc 8355 6f3d
000000a0: 0e99 213d 6309 7e3d 62f0 ef3d ab19 03be
000000b0: 0648 87bd d2ae 173d 982a 4cbe 191a b23d
000000c0: e1dc 6b3c 0b14 5cbd f61d df3d ac5f 203d
000000d0: 86d2 073e 5777 0b3e 14d5 95bd 2d8e 163e
000000e0: 0e45 343c 0dfd 1abd c7f0 923d 82aa b7bd
0.08211582 -0.06353504 -0.119967364 -0.07615295 -0.02764337 0.12065772 0.029867973 -0.027286185
-0.034962684 -0.031748213 -0.08294084 -0.09465492 0.0012310365 0.083965 0.07431425 0.052151766
-0.1440163 0.089557596 0.12550546 -0.10193576 -0.04043118 0.17621775 -0.10964469 0.04134166
0.016097605 0.052931935 0.040849216 0.1554336 0.08595847 -0.13367367 0.07810613 -0.09922899
-0.090824135 0.013633647 0.053578343 -0.14429608 -0.13902214 -0.07764759 -0.019595286 0.05843116
0.039452605 0.06202067 0.11715771 -0.1280276 -0.06605534 0.037031956 -0.19938123 0.08696384
0.014395923 -0.053730052 0.108943865 0.03915374 0.13263902 0.13619743 -0.07316032 0.14702673
0.011002792 -0.037838984 0.07174831 -0.08968069
