outputs/model_1/model_1_weights.pth (torch, 5335 bytes, 5 tensors)

fc1.weight f4 [20, 30]
0	0x3da1b5ac	0.07895979
1	0x3dbb479b	0.09144517
2	0xbd9e0957	-0.07716625
3	0x3d774e20	0.06037724
4	0xbd4af4b9	-0.049549792
5	0x3dc6a4a6	0.09699373
6	0x3c4f52fc	0.012654062
7	0xbd0ca937	-0.034341063
8	0x3d1cef46	0.038314126
9	0xbe2e1049	-0.169984
10	0x3dc4c593	0.09607997
11	0x3e2b7574	0.16744024
12	0x3e1a1cce	0.1505005
13	0xbdd7c599	-0.10535736
14	0xbd90f39e	-0.07077716
15	0xbd9f9a94	-0.07793155
16	0x3d0746c2	0.033026464
17	0xbdffe88e	-0.12495528
18	0xbe09fddf	-0.1347575
19	0xbdaa52e2	-0.0831659
20	0x3e1c9e03	0.15294652
21	0x3d58c5d6	0.052923046
22	0xbe291e3b	-0.16515438
23	0xbda83559	-0.082133
24	0xbe0b9c6f	-0.13633893
25	0xbc887871	-0.016658993
26	0x3be6a1a2	0.007038311
27	0xbdfa4ac9	-0.122212954
28	0xbe192a67	-0.14957581
29	0xbd07a961	-0.033120517
30	0x3c0eabd5	0.00870796
31	0x3e099df5	0.13439162
32	0x3d842839	0.06452984
33	0xbdd97d67	-0.10619622
34	0xbe2c4385	-0.16822632
35	0x3d14fc1d	0.036373246
36	0xbccef943	-0.025265342
37	0x3dda6e83	0.1066561
38	0xbe0214c4	-0.12703234
39	0xbc1929e0	-0.009348363
40	0xbe083b20	-0.13303804
41	0xbdbb9183	-0.091586135
42	0xbdde0e10	-0.10842526
43	0xbd146df8	-0.036237687
44	0xbc6beb41	-0.014399351
45	0x3e2dd9f8	0.1697768
46	0x3e25e828	0.16201842
47	0x3e111f20	0.1417203
48	0x3d33bc44	0.043880716
49	0x3b975e79	0.0046194163
50	0x3e32ca19	0.17459907
51	0xbe009c4d	-0.12559624
52	0xbe2cab3d	-0.16862197
53	0xbdcb80b9	-0.09936661
54	0x3e0b78e2	0.13620332
55	0x3e36ab74	0.17838842
56	0xbd9d0291	-0.07666505
57	0xbdf10525	-0.11768559
58	0xbe2566a8	-0.16152442
59	0x3daeb2ff	0.085302345
60	0xbd9f8b21	-0.077902086
61	0x3e0b1165	0.13580854
62	0xbd884b56	-0.06654994
63	0x3e2c9063	0.16851954
64	0x3df1b691	0.118024
65	0x3df80bb7	0.121116094
66	0x3dcc7f7b	0.099852525
67	0xbe16be06	-0.14720926
68	0x3cc20387	0.023683323
69	0xbde00bc8	-0.10939747
70	0xbd5fb687	-0.05461743
71	0x3de74929	0.11293251
72	0xbdbfdbac	-0.09368071
73	0x3deee2b2	0.116643324
74	0x3c0cf8eb	0.008604269
75	0xbdb0dae7	-0.08635502
76	0xbdb8d7a2	-0.09025504
77	0xbe376fae	-0.17913696
78	0x3d8124e3	0.06305864
79	0x3c38a900	0.0112707615
80	0x3e28849c	0.16456836
81	0x3d85cff6	0.06533806
82	0x3d6a1c8b	0.057156127
83	0xbc38ab8b	-0.011271368
84	0x3da95a85	0.08269218
85	0xbce9dea7	-0.028548552
86	0x3d940d4a	0.07229097
87	0xbda9c47a	-0.08289428
88	0x3def1e4c	0.116757005
89	0x3d4c18d7	0.049828377
90	0x3dc1819b	0.094485484
91	0x3c306e72	0.01076852
92	0x3daf3018	0.08554095
93	0x3e29fc88	0.1660024
94	0x3cecbbf3	0.028898215
95	0x3e03051c	0.12794918
96	0xbe2a0441	-0.16603185
97	0xbc7cfd64	-0.015441272
98	0xbe22abe1	-0.15885879
99	0x3c547a40	0.0129686
100	0x3d145e3f	0.036222693
101	0x3d519c4e	0.051174454
102	0xbd9de864	-0.077103406
103	0x3daf61d5	0.08563582
104	0xbd9f1c18	-0.0776903
105	0xbd400a15	-0.046884615
106	0x3e09844e	0.13429376
107	0xbe2d348d	-0.16914578
108	0x3d13c19d	0.036073316
109	0xbe1d9a8e	-0.15390989
110	0x3da27973	0.07933321
111	0xbe1d99c3	-0.15390687
112	0xbe309d84	-0.17247587
113	0xbd4d4cfe	-0.050122254
114	0x3e144058	0.1447767
115	0x3db813c1	0.08988143
116	0x3deeb655	0.11655871
117	0xbd2b69e9	-0.04184905
118	0x3e26acef	0.16276906
119	0xbdac5888	-0.084153235
120	0xbc1c2d86	-0.009532338
121	0xbe286ccd	-0.16447754
122	0x3c4eaea7	0.012614883
123	0x3d2066e8	0.03916064
124	0xbe3552c6	-0.17707357
125	0x3e1a5899	0.1507286
126	0x3d058597	0.032598104
127	0x3e340fd9	0.1758417
128	0xbd9f8083	-0.077881835
129	0x3c069495	0.008214136
130	0xbd7e7114	-0.06211956
131	0x3e1e2283	0.15442853
132	0xbdd3f39b	-0.103491984
133	0x3dd770be	0.10519551
134	0xbe014a86	-0.12626085
135	0x3e0bd90f	0.1365702
136	0xbe2a5a9b	-0.16636126
137	0xbdb6bd14	-0.089227825
138	0xbda9a48c	-0.08283338
139	0xbd0b7e15	-0.034055788
140	0xbb63112a	-0.0034647682
141	0x3d74ba80	0.059748173
142	0x3e28d8ae	0.16488907
143	0x3ddbaf3a	0.10726781
144	0xbdaf91d8	-0.08572739
145	0x3e330494	0.17482215
146	0xbcda49ae	-0.026646461
147	0xbdd1c4ac	-0.1024259
148	0x3d83a6f1	0.06428326
149	0xbcfffe96	-0.031249326
150	0x3e3109fb	0.17288963
151	0x3cb1dadf	0.021710811
152	0x3e001705	0.12508781
153	0x3d348c4d	0.044079114
154	0xbdfdb4a2	-0.123879686
155	0x3d110d75	0.035413224
156	0xbddf2193	-0.10895076
157	0xbd425790	-0.047446787
158	0xbd73adea	-0.05949203
159	0xbe13521c	-0.14386791
160	0x3d89fbc7	0.06737476
161	0x3e0435fc	0.12911218
162	0xbe391fbe	-0.18078515
163	0x3dcac7bc	0.099013776
164	0xbe14fc77	-0.14549433
165	0xbe361cb2	-0.17784384
166	0x3d82ca98	0.06386298
167	0xbb023c3f	-0.0019872335
168	0xbde5f231	-0.11227835
169	0x3e252c98	0.16130292
170	0x3c55ca96	0.0130487885
171	0xbdea2e85	-0.11434654
172	0x3daf0421	0.085457094
173	0x3c45b557	0.012067161
174	0xbcec647e	-0.028856512
175	0xbe0266d2	-0.12734535
176	0xbc4281d1	-0.011871771
177	0x3dd8a809	0.10578925
178	0xbdc22032	-0.09478797
179	0x3dafddec	0.0858725
180	0xbe2de599	-0.16982116
181	0xbd87a96e	-0.06624113
182	0xbd3df650	-0.04637748
183	0xbe28d263	-0.16486506
184	0x3d83d741	0.06437541
185	0xbe19366d	-0.14962168
186	0x3dcb3698	0.09922522
187	0x3d243cce	0.04009705
188	0x3bc8bd2f	0.006126068
189	0xbdbeeec2	-0.09322883
190	0xbd859ea8	-0.06524402
191	0x3d441e7e	0.047880642
192	0x3e2f35a3	0.17110305
193	0xbdb5e9fe	-0.08882521
194	0xbdfe4137	-0.124147825
195	0xbd9e1dc2	-0.077205196
196	0xbe012b2e	-0.12614128
197	0xbcb953e2	-0.022623006
198	0xbe065934	-0.13119966
199	0x3dfe10d6	0.12405555
200	0x3e003076	0.12518486
201	0xbdefd06a	-0.11709674
202	0x3e23816b	0.15967338
203	0x3d20d274	0.039263204
204	0xbde01ab2	-0.10942592
205	0x3d84bc12	0.06481184
206	0xbe270167	-0.16309129
207	0xbdbe9e24	-0.09307507
208	0xbe0dd24d	-0.13849755
209	0xbdc65b11	-0.09685338
210	0xbd2b7941	-0.041863684
211	0x3d2a713f	0.041611906
212	0x3d0a4a46	0.03376224
213	0xbe3738bd	-0.17892738
214	0xbe334c5c	-0.17509598
215	0xbce246e3	-0.027621692
216	0x3e211541	0.15730764
217	0x3d8a39c2	0.06749298
218	0x3e278223	0.16358237
219	0xbdb24a33	-0.08705559
220	0x3d4bd695	0.04976519
221	0xbe22df70	-0.15905547
222	0x3dc1fffa	0.09472652
223	0xbb35175f	-0.0027632338
224	0xbc538f1a	-0.012912536
225	0xbdca0397	-0.09863966
226	0xbe2315f9	-0.1592635
227	0xbd8962b3	-0.067082785
228	0xbc8c7f42	-0.017150525
229	0xbdc44281	-0.09582997
230	0x3d9d3520	0.076761484
231	0xbd00c28f	-0.031435546
232	0x3c92a14b	0.017899176
233	0xbe2dcab1	-0.16971852
234	0x3d5224ab	0.0513045
235	0xbdb9ae21	-0.090664156
236	0xbe0e7d88	-0.13915074
237	0xbd9541fe	-0.07287978
238	0xbe29b5dc	-0.1657328
239	0xbe0fbe91	-0.14037539
240	0x3e10e6b9	0.14150514
241	0x3e1eba26	0.15500697
242	0xbdee3564	-0.11631277
243	0x3d1a3c40	0.037655115
244	0xbdc6fdf8	-0.097164094
245	0x3e2cb246	0.16864881
246	0x3dd32103	0.10309031
247	0x3da04c67	0.078270726
248	0xbe150aec	-0.14554948
249	0xbdb75117	-0.089510135
250	0xbd21fb96	-0.03954657
251	0xbe24b7d9	-0.16085757
252	0xbddd398a	-0.1080199
253	0x3d2db58b	0.04240946
254	0xbe17a914	-0.14810592
255	0x3d425d7a	0.047452427

fc1.bias f4 [20]
0	0xbdb09241	-0.08621646
1	0xbd64c41e	-0.055851094
2	0x3baa9e68	0.005206872
3	0x3c2c1177	0.010502211
4	0xbd56e2d1	-0.052462403
5	0xbe0669c9	-0.13126291
6	0xbdcff2a0	-0.10153699
7	0xbc6d706a	-0.014492134
8	0x3cb7b168	0.022423461
9	0x3bf27774	0.007399494
10	0xbe2d5682	-0.16927531
11	0x3e25d924	0.16196114
12	0xbddbc96c	-0.107317775
13	0xbd3a41cf	-0.045472916
14	0x3e29b5de	0.16573283
15	0x3abc53a1	0.0014368185
16	0xbe148ce7	-0.14506875
17	0x3dd877f0	0.10569751
18	0xbd918e7a	-0.071072534
19	0x3e34ad02	0.17644122

fc2.weight f4 [10, 20]
0	0xbd8331d7	-0.064059906
1	0xbe2c1d32	-0.16808012
2	0xbe2a6141	-0.16638662
3	0x3b06edf4	0.0020588608
4	0xbd1545a4	-0.036443368
5	0x3e31491f	0.1731305
6	0x3c55c8de	0.013048379
7	0xbe0a0ba9	-0.1348101
8	0x3cc22383	0.023698574
9	0xbe2a9c99	-0.166613
10	0x3cf2aa89	0.029622333
11	0x3d701ea3	0.058622967
12	0xbe574ba5	-0.2102495
13	0xbe1e3155	-0.15448506
14	0xbde5e562	-0.11225392
15	0xbda35e87	-0.07977014
16	0xbd329bea	-0.043605722
17	0x3dbe119b	0.09280702
18	0xbe34bb02	-0.17649463
19	0x3de92edb	0.1138589
20	0xbe1dadf9	-0.15398397
21	0x3e46c53f	0.19411181
22	0xbdfe0f06	-0.12405209
23	0xbe2f68f4	-0.1712988
24	0x3e2521eb	0.1612622
25	0x3e39cb62	0.1814399
26	0xbd96600b	-0.073425375
27	0x3e496e36	0.19670948
28	0x3cc8c12a	0.02450617
29	0x3da6b9a3	0.08140876
30	0xbc6cfa7e	-0.014464019
31	0xbd743932	-0.05962486
32	0xbda1b333	-0.07895508
33	0xbe440d5d	-0.19145723
34	0x3e28c9e3	0.16483264
35	0x3df3c1cb	0.119021975
36	0x3e511f56	0.2042211
37	0xbe613ef1	-0.21996666
38	0x3e638a9e	0.22220847
39	0x3e19bf67	0.1501442
40	0x3d7bc664	0.061468497
41	0xbdc48964	-0.09596518
42	0x3e22e15c	0.1590628
43	0x3e12ad3e	0.14323899
44	0x3e4578c4	0.1928435
45	0xbe3d33fd	-0.18476863
46	0x3d105eb4	0.035246566
47	0x3da63101	0.081148155
48	0xbe611588	-0.2198087
49	0x3e568aaa	0.20951334
50	0x3e0ea17d	0.1392879
51	0xbe37429b	-0.17896502
52	0xbe4416eb	-0.19149368
53	0x3c1c93ec	0.009556752
54	0x3e38ab7e	0.18034169
55	0x3d85bea8	0.065305054
56	0x3d00b107	0.031418826
57	0xbc64d67c	-0.013967153
58	0xbe62ebc3	-0.22160248
59	0x3e0a4a60	0.13504934
60	0x3e0efeec	0.13964432
61	0xbe1f3851	-0.15548827
62	0xbd565845	-0.052330274
63	0x3e5ee2e1	0.21766235
64	0xbdb69bc4	-0.08916429
65	0xbe1c7532	-0.15279081
66	0x3df45405	0.11930088
67	0x3dcd9715	0.10038582
68	0x3e457347	0.19282256
69	0xbdc76f52	-0.097380295
70	0x3d6826aa	0.056677498
71	0x3d4681c3	0.048463594
72	0x3e33ec4e	0.17570612
73	0x3dfaf313	0.12253394
74	0x3d3cc4e7	0.04608622
75	0xbd0a7253	-0.033800434
76	0xbd2fbbfe	-0.042903893
77	0xbdfc3346	-0.12314467
78	0x3db7a1ec	0.08966431
79	0x3e3f1ec0	0.18664074
80	0xbde79572	-0.11307801
81	0xbe1dc9a0	-0.15408945
82	0x3e329414	0.174393
83	0x3cf8162e	0.030284014
84	0xbdd2246e	-0.10260855
85	0x3e13b4e1	0.14424469
86	0xbe388d7d	-0.18022723
87	0xbddf33f9	-0.10898585
88	0xbd936d0a	-0.07198532
89	0xbbfa3d34	-0.0076366905
90	0x3d4246a9	0.047430668
91	0x3de35934	0.111009985
92	0xbd94fd58	-0.07274884
93	0xbca5224a	-0.020157952
94	0xbdea9361	-0.114538915
95	0xbe15e50c	-0.14638156
96	0x3d65bff9	0.056091283
97	0x3e2901c4	0.1650458
98	0x3e46b27a	0.19404021
99	0xbe31f050	-0.17376828
100	0x3dd30873	0.10304346
101	0xbd810986	-0.063006446
102	0xbc8d4d29	-0.017248707
103	0xbc101ed3	-0.008796412
104	0x3e42fcde	0.19041774
105	0x3e40ee67	0.18840943
106	0xbe3c7039	-0.18402185
107	0x3d480b70	0.048839033
108	0x3e08df73	0.13366489
109	0x3d75060c	0.05982022
110	0xbba19da1	-0.004932121
111	0xbddaffc3	-0.10693314
112	0xbe2543b2	-0.16139105
113	0xbe603480	-0.21895027
114	0xbbe55c31	-0.0069995155
115	0xbdb1a334	-0.08673707
116	0x3d4cdf4e	0.050017647
117	0xbdbebfa1	-0.09313894
118	0x3e3c139d	0.18366857
119	0xbe22988a	-0.15878502
120	0x3e4643df	0.19361828
121	0xbda4769b	-0.08030435
122	0x3c882059	0.016616987
123	0xbda663ae	-0.08124481
124	0x3db6db40	0.08928537
125	0x3e369b2c	0.17832631
126	0x3e479c2b	0.19493167
127	0xbe239c3d	-0.15977569
128	0x3e1eb1e2	0.15497544
129	0x3e163472	0.14668444
130	0xbe37a328	-0.17933333
131	0x3da849ba	0.08217187
132	0x3d0b1b7c	0.033961758
133	0x3df31a7a	0.118702844
134	0x3e3f1aa7	0.18662511
135	0x3ad1465e	0.0015966406
136	0xbdb1ee61	-0.08688045
137	0xbdd2ae1b	-0.10287114
138	0x3cb9cd32	0.022680853
139	0xbd1db42f	-0.038501915
140	0xbe2305c0	-0.15920162
141	0x3bcc4a03	0.006234409
142	0x3e087038	0.13324058
143	0x3bece928	0.007229943
144	0x3e11423a	0.1418542
145	0xbdae6832	-0.085159674
146	0x3e36df55	0.17858632
147	0x3d5f736c	0.054553434
148	0xbd97f973	-0.074206255
149	0x3ddd3842	0.10801746
150	0x3ddeea7e	0.108845696
151	0xbdbfb5d7	-0.09360855
152	0xbd1c5361	-0.038165454
153	0x3df05430	0.117348075
154	0xbe479279	-0.19489469
155	0x3db0e049	0.08636529
156	0x3d4b7948	0.04967621
157	0xbe1a9cce	-0.15098879
158	0xbccff72d	-0.025386417
159	0x3d897e4d	0.06713543
160	0x3e19923d	0.14997192
161	0x3e3377d3	0.17526178
162	0xbe1cfca1	-0.15330745
163	0xbe118f90	-0.14214921
164	0x3dd1a9cf	0.102374665
165	0x3e637bf3	0.22215252
166	0x3e38b837	0.18039022
167	0x3db2729c	0.08713266
168	0x3e5ce347	0.21571074
169	0xbdd59046	-0.104279086
170	0xb9db76fb	-0.00041859582
171	0xbe3bb2eb	-0.1832997
172	0xbe0f629e	-0.14002463
173	0xbe1b11e5	-0.15143545
174	0xbe53fbd9	-0.20701541
175	0x3d76f190	0.060288966
176	0x3d716a85	0.058939476
177	0x3db69ca8	0.089165986
178	0x3e158e2f	0.1460502
179	0xbe3a15a0	-0.18172312
180	0xbd80b9cb	-0.06285437
181	0x3e3032c5	0.17206867
182	0xbe43d46f	-0.19124006
183	0x3e209dd0	0.156852
184	0x3d9142ff	0.070928566
185	0xbe3ab361	-0.1823249
186	0x3d5b1ddf	0.053495284
187	0x3c0a2511	0.008431689
188	0x3d2b717d	0.041856278
189	0xbd827c20	-0.06371331
190	0x3dcab20d	0.09897242
191	0x3e355cc5	0.1771117
192	0x3e23c5e8	0.15993464
193	0xbca54c84	-0.020178087
194	0xbe4f57d3	-0.20248346
195	0x3e61151a	0.21980706
196	0x3d838e32	0.06423606
197	0x3e4b6c3f	0.19865511
198	0x3daa17d0	0.08305323
199	0x3bc37d62	0.0059658745

fc2.bias f4 [10]
0	0x3df4b93f	0.119493954
1	0x3e01c184	0.12671477
2	0xbc578b2c	-0.01315574
3	0x3cd27a24	0.025693007
4	0xbb8deced	-0.0043312223
5	0x3e1a370e	0.15060064
6	0x3db9086e	0.09034811
7	0xbd0d40f7	-0.034485783
8	0x3e54c26d	0.20777293
9	0x3e5ed484	0.21760756

fc3.weight f4 [1, 10]
0	0x3e838733	0.25689086
1	0x3d676b6e	0.056498937
2	0x3d000564	0.03125514
3	0xbe0e75de	-0.1391215
4	0x3e6f8950	0.23392224
5	0xbe6709b2	-0.22562292
6	0xbe734a7f	-0.23758887
7	0x3dcfb577	0.101420335
8	0xbe9b84f0	-0.3037486
9	0x3dcd62cc	0.1002861
