outputs/model_1/model_1_weights.pth (torch, 5335 bytes, 5 tensors)

fc1.weight f4 [20, 30]
0	0x3d845c8d	0.06462965
1	0x3db3c342	0.08777477
2	0xbda6f7b4	-0.08152714
3	0x3d833bd6	0.06407897
4	0xbd4399df	-0.047754165
5	0x3dd0dc0c	0.101982206
6	0x3ca36255	0.01994435
7	0xbd253848	-0.040336877
8	0x3d0e2299	0.034700964
9	0xbe316aa0	-0.1732583
10	0x3dd1713f	0.10226678
11	0x3e2ccea5	0.16875704
12	0x3e1f75ee	0.1557233
13	0xbdd7624e	-0.10516797
14	0xbd968dfc	-0.073513
15	0xbda3cf03	-0.07998469
16	0x3ce365ae	0.027758446
17	0xbe02ec73	-0.1278551
18	0xbe0c61d7	-0.13709198
19	0xbd916ea2	-0.0710118
20	0x3e23a5e1	0.15981247
21	0x3d4507ec	0.048103258
22	0xbe294c2a	-0.1653296
23	0xbdae773d	-0.08518837
24	0xbe141a58	-0.14463174
25	0xbcbfea6a	-0.023427207
26	0x3bbd7f9c	0.0057830345
27	0xbdf9b54a	-0.12192781
28	0xbe11d493	-0.14241247
29	0xbd136b3c	-0.03599094
30	0x3c2e8380	0.010651469
31	0x3e096ebf	0.13421153
32	0x3d87b167	0.06625634
33	0xbdd9be2b	-0.10631975
34	0xbe2c8efd	-0.1685142
35	0x3d11d23d	0.03560089
36	0xbcd696a8	-0.026194885
37	0x3ddb4346	0.10706191
38	0xbe01577b	-0.12631027
39	0xbc112121	-0.008857996
40	0xbe085e94	-0.13317329
41	0xbdbb8524	-0.09156254
42	0xbddc9c83	-0.1077204
43	0xbd1bbd2b	-0.0380222
44	0xbc7a9cae	-0.015296144
45	0x3e2dcc8b	0.16972558
46	0x3e25b339	0.1618165
47	0x3e11a206	0.14221963
48	0x3d32c8d6	0.043648563
49	0x3b3d1fe7	0.0028858127
50	0x3e31fb8d	0.17381115
51	0xbe010b20	-0.126019
52	0xbe2cb1c9	-0.16864695
53	0xbdca0a92	-0.098652974
54	0x3e0c0977	0.13675486
55	0x3e370b0b	0.17875306
56	0xbd99a819	-0.07502765
57	0xbdf1feee	-0.11816202
58	0xbe2616cb	-0.16219632
59	0x3dad41aa	0.0845979
60	0xbd9696a9	-0.07352955
61	0x3e0bbe05	0.13646705
62	0xbd8434a2	-0.064553514
63	0x3e2b0ace	0.1670334
64	0x3df110c1	0.11770774
65	0x3df6501f	0.12027001
66	0x3dc6e26e	0.09711157
67	0xbe163b75	-0.14671119
68	0x3ccd3462	0.025049392
69	0xbddf145f	-0.10892557
70	0xbd65cd3a	-0.056103922
71	0x3de79824	0.113083154
72	0xbdbe01b2	-0.09277667
73	0x3debcb7c	0.11513421
74	0x3c1a571e	0.009420184
75	0xbdb14c63	-0.08657148
76	0xbdb594c6	-0.08866267
77	0xbe35bdb2	-0.17748144
78	0x3d8040ec	0.06262383
79	0x3be5b958	0.00701062
80	0x3e267452	0.1625531
81	0x3d86c52d	0.06580577
82	0x3d684285	0.056704063
83	0xbc1ede9d	-0.00969663
84	0x3daebe63	0.08532407
85	0xbcdde809	-0.027088182
86	0x3d95e98d	0.07319937
87	0xbdaa0889	-0.08302409
88	0x3dec7191	0.115450986
89	0x3d4d0fe0	0.050063968
90	0x3dc587d2	0.09645046
91	0x3c49fa07	0.012327678
92	0x3db17725	0.08665303
93	0x3e28f5d6	0.16500029
94	0x3ce62b2d	0.02809676
95	0x3e01fda4	0.12694412
96	0xbe2b2d3f	-0.16716479
97	0xbc6cb8a7	-0.014448321
98	0xbe227d73	-0.15868168
99	0x3c55d378	0.013050906
100	0x3d0c71dd	0.034288276
101	0x3d5329e2	0.051553614
102	0xbd9f29a8	-0.07771617
103	0x3daf0681	0.085461624
104	0xbd9d54eb	-0.076822124
105	0xbd3e4087	-0.046448257
106	0x3e0c35fd	0.1369247
107	0xbe2c0dac	-0.1680209
108	0x3d17c223	0.037050378
109	0xbe20dac3	-0.15708451
110	0x3da0b024	0.07846096
111	0xbe1c1f0c	-0.15246218
112	0xbe2f7fc9	-0.1713859
113	0xbd504dc6	-0.05085542
114	0x3e158557	0.14601646
115	0x3dbce9fb	0.09224316
116	0x3df050a9	0.11734135
117	0xbd2e36b7	-0.04253265
118	0x3e252660	0.1612792
119	0xbdaa7e17	-0.08324831
120	0xbc516d56	-0.012782415
121	0xbe2badc3	-0.16765504
122	0x3c16ab22	0.009196075
123	0x3d2b7175	0.041856248
124	0xbe33705c	-0.1752333
125	0x3e1d2a9b	0.15348284
126	0x3d0cb035	0.03434773
127	0x3e324b94	0.17411643
128	0xbda0f631	-0.07859457
129	0x3c0b8449	0.008515426
130	0xbd7001d8	-0.05859551
131	0x3e1e12a2	0.15436795
132	0xbdd105f2	-0.10206212
133	0x3dd735d3	0.10508313
134	0xbe034875	-0.12820609
135	0x3e0c7d51	0.1371968
136	0xbe2e12b8	-0.16999328
137	0xbdb9e26e	-0.09076391
138	0xbda8c2c5	-0.08240274
139	0xbcfdfc00	-0.031003952
140	0xbb147e2c	-0.0022658212
141	0x3d71aafd	0.059000958
142	0x3e27a854	0.16372806
143	0x3ddc43f3	0.10755148
144	0xbdb44a6f	-0.088032596
145	0x3e2fab7e	0.17155263
146	0xbcdc4392	-0.026887689
147	0xbdd080eb	-0.10180839
148	0x3d8bc336	0.06824343
149	0xbd025199	-0.0318161
150	0x3e3269e3	0.17423205
151	0x3ca6dfc5	0.020370374
152	0x3df77a90	0.12083924
153	0x3d408fa1	0.047011975
154	0xbdf45e91	-0.119320996
155	0x3d1d5aca	0.03841666
156	0xbdd85e7a	-0.10564895
157	0xbd484229	-0.04889122
158	0xbd70dc37	-0.058803763
159	0xbe141f49	-0.1446506
160	0x3d90b3a5	0.070655145
161	0x3e044c4d	0.12919731
162	0xbe383b30	-0.17991328
163	0x3dcb8b83	0.09938719
164	0xbe139c90	-0.14415193
165	0xbe36f5e4	-0.17867237
166	0x3d80f29d	0.06296275
167	0xbb84c6c4	-0.004052015
168	0xbde53759	-0.11192197
169	0x3e27646e	0.16346905
170	0x3c74076b	0.014894347
171	0xbdea84bb	-0.114510976
172	0x3dab8686	0.08375268
173	0x3c539d06	0.012915855
174	0xbcef5454	-0.029215015
175	0xbe0516e8	-0.1299702
176	0xbc5914fd	-0.013249633
177	0x3dd85ffe	0.10565184
178	0xbdb6b126	-0.08920507
179	0x3dac3b53	0.08409753
180	0xbe37bb0f	-0.17942451
181	0xbd8d7898	-0.06907767
182	0xbd6b41d1	-0.057435814
183	0xbe2477cd	-0.16061325
184	0x3d85a24b	0.065250956
185	0xbe12608a	-0.14294639
186	0x3dd868b4	0.105668455
187	0x3d191c65	0.037380595
188	0x3b1f2ea6	0.002428928
189	0xbdc7539b	-0.09732743
190	0xbd7e8238	-0.062135905
191	0x3d359036	0.044326983
192	0x3e33bd28	0.17552626
193	0xbdb31743	-0.08744671
194	0xbdfe6896	-0.12422292
195	0xbda5da9a	-0.080983356
196	0xbe064b24	-0.13114601
197	0xbcc4ec62	-0.024038497
198	0xbe0540a2	-0.13012937
199	0x3e078dfb	0.13237755
200	0x3e04b313	0.12958936
201	0xbdede7b2	-0.11616458
202	0x3e24e176	0.16101632
203	0x3d1b0997	0.037850942
204	0xbdede212	-0.11615385
205	0x3d78642c	0.060642406
206	0xbe29ae38	-0.16570365
207	0xbdc6dbc0	-0.09709883
208	0xbe06f2b3	-0.1317852
209	0xbdcff086	-0.10153298
210	0xbd21e061	-0.039520625
211	0x3d2a4971	0.041573945
212	0x3d0eb1d9	0.034837577
213	0xbe36bde9	-0.17845882
214	0xbe32f2c5	-0.17475422
215	0xbce2e787	-0.027698291
216	0x3e1f9068	0.1558243
217	0x3d8a8346	0.0676332
218	0x3e26e199	0.16296996
219	0xbdb12980	-0.086504936
220	0x3d5075ed	0.050893713
221	0xbe22c300	-0.15894699
222	0x3dc2989b	0.095017634
223	0xbb935a2d	-0.004496834
224	0xbc62ddd2	-0.013846831
225	0xbdc9e83d	-0.09858749
226	0xbe2359b0	-0.15952182
227	0xbd89aa8f	-0.067219846
228	0xbc8d56e5	-0.017253349
229	0xbdc69137	-0.09695666
230	0x3d9c48c4	0.076310664
231	0xbd01c3d1	-0.031680886
232	0x3c934569	0.017977433
233	0xbe2e1b4e	-0.17002603
234	0x3d529b9a	0.051417924
235	0xbdb6cfb5	-0.08926336
236	0xbe0d446c	-0.13795632
237	0xbd960ff8	-0.073272645
238	0xbe2a0817	-0.16604649
239	0xbe0eb389	-0.13935675
240	0x3e0b6131	0.13611294
241	0x3e1907ef	0.14944433
242	0xbe01db9f	-0.12681435
243	0x3d222de0	0.03959453
244	0xbdc098e5	-0.09404162
245	0x3e2ef1bf	0.17084406
246	0x3de44609	0.11146171
247	0x3d94aa8b	0.07259091
248	0xbe186a87	-0.14884387
249	0xbdb7e6fe	-0.08979605
250	0xbd1d2e8e	-0.038374476
251	0xbe272545	-0.16322811
252	0xbdda8321	-0.10669542
253	0x3d44f09b	0.04808102
254	0xbe18312a	-0.14862505
255	0x3d46fa01	0.048578266

fc1.bias f4 [20]
0	0xbda7248f	-0.0816127
1	0xbd6719e6	-0.056421183
2	0x3b543919	0.0032382666
3	0x3c2f3d78	0.010695808
4	0xbd552599	-0.05203781
5	0xbe0866c0	-0.13320446
6	0xbdc701db	-0.09717151
7	0xbc799a85	-0.015234594
8	0x3ca1c6cb	0.019748112
9	0x3be58bd4	0.007005194
10	0xbe2badf8	-0.16765583
11	0x3e258ace	0.16166231
12	0xbdd9cb5e	-0.10634492
13	0xbd371cc9	-0.044705186
14	0x3e2d6c6a	0.16935888
15	0x3a9c520c	0.0011926307
16	0xbe157226	-0.14594325
17	0x3dd76aeb	0.1051844
18	0xbd8cae26	-0.06869154
19	0x3e353ea1	0.17699672

fc2.weight f4 [10, 20]
0	0xbd84dec3	-0.06487801
1	0xbe2b26f5	-0.1671408
2	0xbe2a5648	-0.16634476
3	0x3a9f0bec	0.001213429
4	0xbd1383c6	-0.03601434
5	0x3e324554	0.17409259
6	0x3c5b59ed	0.013388139
7	0xbe09a353	-0.1344121
8	0x3ccd381e	0.025051173
9	0xbe295cd3	-0.16539316
10	0x3d08be5c	0.033384666
11	0x3d71efc2	0.05906654
12	0xbe57e001	-0.21081544
13	0xbe1ca016	-0.15295443
14	0xbde60278	-0.112309396
15	0xbda01e81	-0.07818318
16	0xbd2665b5	-0.04062434
17	0x3dc00d69	0.09377558
18	0xbe34baf5	-0.17649443
19	0x3decdab7	0.11565154
20	0xbe1eb8df	-0.1550021
21	0x3e4911c1	0.19635679
22	0xbe02ae9e	-0.12761924
23	0xbe2f29dc	-0.17105812
24	0x3e241b25	0.1602598
25	0x3e3a3f0b	0.18188111
26	0xbd9b2728	-0.07575828
27	0x3e48c19b	0.19605105
28	0x3cce4df6	0.025183659
29	0x3da6510d	0.08120928
30	0xbc56f4e7	-0.013119913
31	0xbd7a3461	-0.06108511
32	0xbda5a48b	-0.08088025
33	0xbe445163	-0.19171672
34	0x3e271dbd	0.16319938
35	0x3df29c57	0.11846226
36	0x3e500723	0.20315222
37	0xbe611776	-0.21981606
38	0x3e623b17	0.22092853
39	0x3e18b712	0.14913586
40	0x3d79bc99	0.060970876
41	0xbdc48e7a	-0.09597488
42	0x3e219316	0.15778765
43	0x3e12d46f	0.1433885
44	0x3e451002	0.19244388
45	0xbe3d0cc6	-0.18461904
46	0x3d0b3665	0.03398742
47	0x3da4e8c4	0.08052209
48	0xbe613e58	-0.21996439
49	0x3e5653fc	0.20930475
50	0x3e0eee6e	0.13958141
51	0xbe37e090	-0.17956758
52	0xbe4493e8	-0.19197047
53	0x3c157658	0.009122454
54	0x3e37a7a5	0.17935045
55	0x3d84fb41	0.064932354
56	0x3d00ca40	0.03144288
57	0xbc6d4f08	-0.014484175
58	0xbe638208	-0.22217572
59	0x3e09d157	0.13458763
60	0x3e120b47	0.14262114
61	0xbe210021	-0.15722705
62	0xbd28ba1e	-0.04119312
63	0x3e5e98d5	0.21737988
64	0xbdaf8781	-0.08570767
65	0xbe1d3733	-0.15353088
66	0x3e02fb55	0.12791188
67	0x3dd38bb1	0.103293784
68	0x3e453c1d	0.19261213
69	0xbdc531ee	-0.09628664
70	0x3d5eb122	0.054368146
71	0x3d5c7de2	0.05383099
72	0x3e3a4c65	0.18193205
73	0x3e004ee7	0.12530099
74	0x3d5734a1	0.052540425
75	0xbd00e2b5	-0.031466205
76	0xbd236418	-0.03989038
77	0xbdf7258b	-0.12067708
78	0x3dc09ddc	0.09405109
79	0x3e43221d	0.19055982
80	0xbde8c935	-0.11366502
81	0xbe1c7833	-0.15280227
82	0x3e2a7ef1	0.16649987
83	0x3cf62c8f	0.030050544
84	0xbdd7de94	-0.105405
85	0x3e1447f1	0.14480568
86	0xbe3a9010	-0.18219018
87	0xbde1016a	-0.10986598
88	0xbd93278d	-0.07185278
89	0xbbe94d26	-0.0071197925
90	0x3d433f7c	0.047667965
91	0x3ddb0162	0.10693623
92	0xbd9fe740	-0.07807779
93	0xbcb1900b	-0.02167513
94	0xbdeed692	-0.1166202
95	0xbe168d46	-0.14702329
96	0x3d47d74a	0.0487893
97	0x3e28d7fa	0.16488639
98	0x3e4597ca	0.19296184
99	0xbe32b3ff	-0.17451476
100	0x3dd8b358	0.10581082
101	0xbd8d4a5e	-0.0689895
102	0xbc36a2ba	-0.0111471955
103	0xbc190d03	-0.009341481
104	0x3e45c54a	0.19313541
105	0x3e3fdb7b	0.18736069
106	0xbe3967d4	-0.18106014
107	0x3d46a42c	0.04849641
108	0x3e05e77f	0.1307659
109	0x3d75b713	0.059989046
110	0xbba9d15a	-0.0051824274
111	0xbdd82f68	-0.10555917
112	0xbe218ea3	-0.15777068
113	0xbe616066	-0.2200943
114	0xbb8e1797	-0.004336308
115	0xbdb0b38e	-0.08627997
116	0x3d58233c	0.052767977
117	0xbdc19b44	-0.09453443
118	0x3e3e3006	0.18573007
119	0xbe218faf	-0.15777467
120	0x3e4b2caf	0.19841264
121	0xbdb594ed	-0.08866296
122	0x3d0d8c23	0.034557473
123	0xbda7f645	-0.08201269
124	0x3dc100be	0.0942397
125	0x3e34afa4	0.17645127
126	0x3e561808	0.20907605
127	0xbe1e94e4	-0.15486485
128	0x3e1d2e2f	0.15349649
129	0x3e177198	0.14789426
130	0xbe3be64d	-0.18349572
131	0x3db91a6d	0.090382434
132	0x3d310a06	0.04322245
133	0x3dfb5517	0.12272089
134	0x3e489cc1	0.19591047
135	0x3ba73587	0.0051028165
136	0xbda986f0	-0.082776904
137	0xbdce6cc7	-0.100793414
138	0x3cec861a	0.028872538
139	0xbd067034	-0.03282185
140	0xbe23fe0b	-0.16014878
141	0x3bcc5606	0.0062358407
142	0x3e031c72	0.1280382
143	0x3bf2fbbf	0.0074152644
144	0x3e0ff375	0.14057715
145	0xbdacff1a	-0.08447094
146	0x3e339329	0.17536606
147	0x3d5a34ff	0.053273197
148	0xbd99e64c	-0.07514629
149	0x3ddccd92	0.10781397
150	0x3de134b4	0.109963804
151	0xbdc45a07	-0.09587484
152	0xbd269776	-0.04067179
153	0x3dec5a85	0.11540703
154	0xbe49c9f1	-0.19705941
155	0x3dae7ec7	0.085202746
156	0x3d48c9a9	0.049020443
157	0xbe1c1435	-0.15242083
158	0xbce1d2e6	-0.027566385
159	0x3d8609f6	0.06544869
160	0x3e1f463b	0.15554135
161	0x3e276fe5	0.16351278
162	0xbe13b5ac	-0.14424771
163	0xbe14e498	-0.14540327
164	0x3dd88c92	0.10573687
165	0x3e61e40d	0.2205965
166	0x3e4388a6	0.19095096
167	0x3db4585b	0.08805915
168	0x3e5918d9	0.21200885
169	0xbdd24056	-0.10266177
170	0xbbcf7110	-0.006330617
171	0xbe3ac637	-0.18239675
172	0xbe0c8716	-0.13723406
173	0xbe1adbeb	-0.15122955
174	0xbe4fb66f	-0.20284437
175	0x3d812ddb	0.06307574
176	0x3d6c90b8	0.057755202
177	0x3db8575f	0.0900104
178	0x3e17be11	0.14818598
179	0xbe366543	-0.17812066
180	0xbd842b2e	-0.06453548
181	0x3e342cff	0.1759529
182	0xbe4aa328	-0.19788802
183	0x3e20efd2	0.15716484
184	0x3d8d070e	0.06886111
185	0xbe39e233	-0.18152694
186	0x3d459b1b	0.048243623
187	0x3beb605c	0.007183118
188	0x3d30e812	0.04319007
189	0xbd8363db	-0.0641553
190	0x3dcf4cc6	0.10122065
191	0x3e321378	0.17390239
192	0x3e1f97c5	0.15585239
193	0xbcafc8b3	-0.021458006
194	0xbe52a114	-0.20569259
195	0x3e602b83	0.21891598
196	0x3d7ee3e1	0.06222904
197	0x3e4b3ccd	0.19847412
198	0x3da4f78c	0.08055028
199	0x3b7117dc	0.0036787903

fc2.bias f4 [10]
0	0x3df671d4	0.1203343
1	0x3e002644	0.12514597
2	0xbc6d0ebc	-0.014468845
3	0x3d0c27a1	0.03421748
4	0xbc149dad	-0.009070796
5	0x3e1cdec4	0.15319353
6	0x3dd06b7c	0.10176751
7	0xbd18b3cb	-0.03728084
8	0x3e555909	0.20834745
9	0x3e5b6c4a	0.21428028

fc3.weight f4 [1, 10]
0	0x3e8387c4	0.25689518
1	0x3d68271a	0.056677915
2	0x3c9e8a68	0.019353107
3	0xbe2911c6	-0.16510686
4	0x3e6c105b	0.23053114
5	0xbe68a804	-0.22720343
6	0xbe8b8902	-0.27252966
7	0x3dc36b2b	0.09541925
8	0xbe977179	-0.2957876
9	0x3dce90f1	0.10086239
