outputs/model_1/NN_weights.pt (torch, 2263 bytes, 5 tensors)

fc1.weight f4 [4, 12]
00000000: 085c 103f 6320 703e d2a0 803d 3a86 033f
00000010: 357a 8bbe 7558 5cbe b54c 4bbd db0a 1abe
00000020: 7b43 7e3e ad70 c1be 941f ae3f 4018 a93d
00000030: bf48 30bd d314 15bf 7b6c 813e 52a4 24bb
00000040: 43b4 123e 7a31 7dbc 8cc5 91be 9bf3 ad3e
00000050: 8380 fdbe 9758 afbe 0c3e b1be 5de1 8c3f
00000060: 4090 71bf 30f9 8a3d 146d 7e3d 8226 9cbe
00000070: 2c42 113f 5e55 06bf 84f5 233e a75a 41be
00000080: 3317 673f c9e9 04bf 6a4d 4ebf c485 04be
00000090: a55b 833e 96b5 1b3f 4296 4abd 829f a4be
000000a0: 8e95 2fbf da77 1fbe 8a55 06be a3d6 073f
000000b0: de2c ed3e f08d 8c3e 6d94 bc3e f381 dbbe
0.5639043 0.23449855 0.06280674 0.5137669 -0.27241674 -0.21518119 -0.0496337 -0.15043204
0.2483043 -0.37781277 1.3603387 0.082565784 -0.043038126 -0.582349 0.25278077 -0.0025122357
0.14326577 -0.015453691 -0.2847103 0.3397492 -0.4951211 -0.34247276 -0.3461765 1.1006275
-0.94360733 0.0678581 0.062115744 -0.3049813 0.56741595 -0.5247401 0.16011626 -0.18882237
0.90269774 -0.5191923 -0.80586874 -0.12941653 0.25655857 0.60823953 -0.049459703 -0.32152945
-0.6858758 -0.15573063 -0.13118568 0.53061885 0.46323293 0.2745204 0.3683199 -0.4287258

fc1.bias f4 [4]
00000000: 5612 cbbe 9a71 0e3e e9da 99be 8a83 0a3e
-0.39662427 0.13910523 -0.30049828 0.1352674

fc2.weight f4 [4, 4]
00000000: 336c f2be 0a59 b03f 453f 01bf b2fa 833f
00000010: 0057 663f e997 99be 15eb 853f fdbc 02bf
00000020: aa30 543f 3483 edbe 2056 513f 8b4c 05bf
00000030: 16e9 823f 591c d6be bd86 943f 37a7 21bf
-0.47348174 1.3777173 -0.50487167 1.0310881 0.899765 -0.2999871 1.0462366 -0.51069623
0.82886755 -0.46389163 0.8177204 -0.5206992 1.0227382 -0.41818503 1.1603619 -0.63145775

fc2.bias f4 [4]
00000000: 7f21 153f 8d4b 733e 52c0 b63e b561 a93e
0.58254236 0.23759289 0.35693604 0.33082357

fc3.weight f4 [1, 4]
00000000: aef9 f03f 0916 b9bf 20a8 adbf e854 dabf
1.8826196 -1.445985 -1.3566933 -1.7057161
