outputs/model_1/NN_weights.pt (torch, 2583 bytes, 5 tensors)

fc1.weight f4 [4, 30]
00000000: 77c8 63be bec3 483e 17a8 9d3d c258 96be
00000010: 3b02 e23d 0002 97bc dfbc f9bd 8e84 08be
00000020: ea98 debd b4bc 663e df30 023f 9341 13bd
00000030: ae93 49bd 4f44 113e bbda 933d 329f 803e
00000040: 9205 d23b 85e3 3abe f185 52be 3362 453e
00000050: da73 963d dce4 bcbd cecb 643d c37c 773e
00000060: 8489 ab3d 936d 4bbe e308 c33c 408f 633e
00000070: 0342 84be cae6 20bd 3ca5 d93d 42ea a7bd
00000080: a1df 9bbd abad 6bbe 0338 25bd 11fd ca3d
00000090: fddb a4bd 220d b0bd 7f8e 4f3d 1792 293e
000000a0: 2f6c c43c c285 213e ae97 0c3e 1e52 9cbc
000000b0: ccb9 6dbe 502f 33bd 4a18 f93d 7571 c2bd
000000c0: b58f 803c 7787 f2bd 1c33 043e 0115 f03d
000000d0: b287 f6bd e530 0dbd 96a6 3c3e 5015 a93d
000000e0: 9520 1dbe 4591 80bd 27d0 863e e65a cd3d
000000f0: fe7a 873e 7ce3 803e e9fa 93be 74db 3cbe
00000100: cb84 d13d 91cd 5dbd fd9d b6be 65a8 ca3d
00000110: 4cd1 0bbe 46a7 0fbe 9aff bebd 597d 5c3e
00000120: 5ce2 50be e248 2bbe d8c7 94bd 28bb 263e
00000130: bacf a63e 14c5 a03e 4f43 023e 08bd 78be
00000140: ba7f a6bc 7058 0c3e 1578 56be 6f7c e3bc
00000150: e0d9 163e cc6b 12bf 08cb 353e dca2 2bbe
00000160: 3d28 893e ee9a 5d3e 4307 983d ce50 6ebc
00000170: 8f43 ea3e e2dc b43e c261 98bd 10ec ccbd
00000180: c9d0 ecbd 56aa 523e 3d69 66be c99c 33be
00000190: 6caa 64bd fb60 113e 6eee 833e 2e7a 963e
000001a0: 4418 94be 1bb1 8fbc b5d2 c9bd 1dd4 5ebe
000001b0: 280f e7bc 83c5 86be 79d4 413d 7de7 d4bd
000001c0: db97 ed3d 2aed a63c d887 7dbe 0bdb 063f
000001d0: 63c4 913c 56f5 7dbd 53d9 92be 0ac7 aebd
-0.2224444 0.1960592 0.07698076 -0.29364592 0.11035582 -0.01843357 -0.121942274 -0.13331816
-0.1086901 0.22532922 0.5085582 -0.03595121 -0.049213104 0.14186214 0.07219454 0.25121456
0.0064093554 -0.18250854 -0.20558907 0.19275741 0.07346316 -0.09223339 0.055858426 0.24168687
0.083758384 -0.19866018 0.023807948 0.22222614 -0.25831613 -0.039282598 0.10627219 -0.08198978
-0.07611013 -0.23015468 -0.04033662 0.0991155 -0.08049772 -0.08596255 0.050673004 0.16559635
0.023977367 0.15773681 0.13729736 -0.019082125 -0.23215407 -0.043746293 0.12162836 -0.094942965
0.015693525 -0.11842244 0.12910122 0.11722756 -0.120376006 -0.034470458 0.18422922 0.08256018
-0.1534446 -0.06277708 0.26330683 0.10027103 0.26461023 0.25173557 -0.28902367 -0.1844309
0.102304064 -0.05415112 -0.3566741 0.098954 -0.13654059 -0.14028654 -0.09326096 0.21532191
-0.20398849 -0.16727021 -0.0726468 0.16282332 0.32580358 0.3140036 0.12720989 -0.2429086
-0.020324577 0.13705611 -0.20944245 -0.027769295 0.1473155 -0.57195735 0.17753232 -0.16761345
0.26788512 0.21641132 0.0742326 -0.0145456325 0.45754668 0.3532477 -0.07440521 -0.10005963
-0.1156326 0.2057279 -0.22501083 -0.17540278 -0.05582659 0.14197151 0.25767845 0.2939009
-0.28924763 -0.017540505 -0.09854642 -0.21760602 -0.02820547 -0.26322564 0.04732177 -0.103957154
0.1160123 0.02037676 -0.24758852 0.52677983 0.01779384 -0.06200155 -0.2868143 -0.085340574

fc1.bias f4 [4]
00000000: 73eb 8cbd 12a5 c0bb 97f1 823e 40b5 593e
-0.06880846 -0.005879053 0.25574943 0.21260548

fc2.weight f4 [4, 4]
00000000: 310b 213f ebae 3a3e f0e6 b73e d556 c33e
00000010: 5b67 293f f618 8e3e 1d32 8d3f 20ce 803f
00000020: 8924 a53e f970 4bbe dece 73be 3074 8abe
00000030: 6425 d4be 24c5 9bbd 129c c03e a5f3 253d
0.629077 0.18230788 0.3591838 0.38152185 0.6617333 0.2775342 1.1030918 1.0062904
0.32254437 -0.19867314 -0.23809382 -0.2704177 -0.41434777 -0.07605961 0.37619072 0.04051556

fc2.bias f4 [4]
00000000: f148 c1be f822 1cbf 0adb c3be d84d 90be
-0.37750962 -0.6099086 -0.3825305 -0.2818439

fc3.weight f4 [1, 4]
00000000: 6abb 2abf 0ac7 d8bf 38aa 423d 3c39 e73e
-0.6669222 -1.6935742 0.047525615 0.45160854
