outputs/model_1/NN_weights.pt (torch, 2263 bytes, 5 tensors)

fc1.weight f4 [4, 12]
000000 f5 3a 0f 3f e0 6e 80 3e 0b 6c e5 3d ea f0 17 3f
       0.55949336 0.2508459 0.11202248 0.5935198
000010 df e8 8e be 4f 92 8d be 9b 46 89 bd c4 ec 55 be
       -0.27912042 -0.27650687 -0.0670292 -0.208911
000020 59 2a ae 3e f3 e8 db be ea b3 cc 3f ab 0a 31 3d
       0.34016684 -0.42951164 1.5992405 0.043223064
000030 7c 92 22 3c ee d2 3c bf 1b cc b0 3e d8 08 d8 3c
       0.00992262 -0.73759353 0.3453072 0.026371405
000040 80 54 53 3e a3 52 d0 bd 94 75 a5 be 86 96 c4 3e
       0.20637703 -0.10172012 -0.32316267 0.3839609
000050 1a 33 0e bf a9 98 d7 be 06 66 a4 be 39 f4 a1 3f
       -0.55546725 -0.42108658 -0.32109088 1.2652656
000060 d2 cb 98 bf 35 49 93 3d b3 02 dc 3d 20 38 96 be
       -1.1937201 0.071916975 0.10742702 -0.29339695
000070 0d 88 24 3f 5e dd 29 bf e6 cd cb 3d 9f a5 0f be
       0.64270097 -0.66353405 0.099513814 -0.14028023
000080 72 c4 86 3f 06 6b 30 bf d4 d6 62 bf c1 74 49 be
       1.05287 -0.68913305 -0.8860905 -0.19673444
000090 4e e4 98 3e fc cf 65 3f 1e f4 b6 bd 68 fc e5 be
       0.29861683 0.89770484 -0.089332804 -0.44919133
0000a0 5b b4 48 bf 88 c6 29 be 4a 4a 1d be b4 e6 1b 3f
       -0.784002 -0.1657964 -0.1536037 0.608989
0000b0 51 fd 0e 3f b4 4c 8e 3e 1a 70 b8 3e a8 4b 0f bf
       0.5585528 0.27792895 0.36023027 -0.5597482

fc1.bias f4 [4]
000000 ca 47 01 bf 66 54 1a 3e 34 d1 a9 be e5 7d 11 3e
       -0.50500166 0.15071258 -0.33167422 0.14208181

fc2.weight f4 [4, 4]
000000 4d 47 1e bf df 53 ca 3f 3a f8 31 bf 58 c6 af 3f
       -0.61827546 1.5806845 -0.6951939 1.3732405
000010 69 71 7c 3f f4 fc a9 be 7c d8 96 3f af 3a 06 bf
       0.9861055 -0.332008 1.1784816 -0.52433294
000020 62 b6 74 3f b5 a0 03 bf 91 1a 7a 3f 63 b7 0b bf
       0.95590794 -0.51417094 0.9769679 -0.545767
000030 ae bd 99 3f 1c 49 02 bf c8 0f b0 3f 8d 32 2d bf
       1.2011011 -0.50892806 1.3754816 -0.6765526

fc2.bias f4 [4]
000000 49 8b 42 3f 5f 5e a7 3e 2e 82 e8 3e 4b e6 f5 3e
       0.7599378 0.32689187 0.4541182 0.48027262

fc3.weight f4 [1, 4]
000000 bc 97 16 40 eb c8 ce bf c5 51 c9 bf c9 bd 01 c0
       2.3530111 -1.6155065 -1.5728079 -2.0272086
