outputs/model_1/NN_weights.pt (torch, 2263 bytes, 5 tensors)

fc1.weight f4 [4, 12]
0.5551801 0.23916309 0.08260756 0.5408813 -0.275954 -0.23967831 -0.058216013 -0.17421816
0.28651187 -0.39807743 1.450951 0.06340366 -0.019039638 -0.6394392 0.28695977 0.01025173
0.16663234 -0.050709024 -0.29487702 0.35482112 -0.5147394 -0.37399134 -0.33290538 1.157402
-1.0437315 0.069661014 0.07953439 -0.29392287 0.6028586 -0.58213913 0.1301866 -0.16897921
0.9523992 -0.5913947 -0.83994734 -0.15993756 0.26888922 0.724911 -0.0626847 -0.37550232
-0.7250231 -0.16563927 -0.1416288 0.5643323 0.49587458 0.27464828 0.36534646 -0.47901216
00000000: 4820 0e3f 2be7 743e 272e a93d 3277 0a3f
00000010: d849 8dbe 3b6e 75be ea73 6ebd 3f66 32be
00000020: afb1 923e ced0 cbbe c3b8 b93f c7d9 813d
00000030: 04f9 9bbc 4ab2 23bf 64ec 923e dff6 273c
00000040: aba1 2a3e 44b4 4fbd 1ffa 96be 1dab b53e
00000050: f6c5 03bf cb7b bfbe 9372 aabe c025 943f
00000060: fe98 85bf 6faa 8e3d ede2 a23d 0f7d 96be
00000070: f154 1a3f 1207 15bf a34f 053e e308 2dbe
00000080: 6fd0 733f a565 17bf ca06 57bf acc6 23be
00000090: d9ab 893e c493 393f d660 80bd d741 c0be
000000a0: 1d9b 39bf 579d 29be 2407 11be 1578 103f
000000b0: 46e3 fd3e b39e 8c3e b10e bb3e 1541 f5be

fc1.bias f4 [4]
-0.435311 0.14517704 -0.3145538 0.13089624
00000000: 15e1 debe 4aa9 143e 320d a1be aa09 063e

fc2.weight f4 [4, 4]
-0.5360917 1.4537035 -0.5753774 1.1778797 0.9535413 -0.3297713 1.116752 -0.5251705
0.8750562 -0.48368078 0.8844574 -0.5373902 1.0798774 -0.45127565 1.2395451 -0.64670086
00000000: 4e3d 09bf f512 ba3f ef4b 13bf c3c4 963f
00000010: 481b 743f c9d7 a8be bbf1 8e3f 9371 06bf
00000020: af03 603f 02a5 f7be cd6b 623f 6792 09bf
00000030: 6c39 8a3f 9a0d e7be 6aa9 9e3f 308e 25bf

fc2.bias f4 [4]
0.6564277 0.27965888 0.39999264 0.3880958
00000000: a50b 283f 732f 8f3e d6cb cc3e 7eb4 c63e

fc3.weight f4 [1, 4]
2.0768702 -1.5479429 -1.4501549 -1.8187698
00000000: 71eb 0440 fe22 c6bf ad9e b9bf 73cd e8bf
