Data/NN_weights.pt (torch, 2263 bytes, 5 tensors)

fc1.weight f4 [4, 12]
0	0x3ee04f1a	0.4381035
1	0x3e421f47	0.18957244
2	0x3c9c972d	0.019115055
3	0x3e7b471f	0.2453885
4	0xbda0e612	-0.078563824
5	0x3b22124e	0.0024730149
6	0xbdf069c6	-0.11738925
7	0xbe3000b6	-0.17187771
8	0x3d74e90a	0.059792556
9	0xbda66d42	-0.08126308
10	0x3f30f068	0.6911683
11	0x3daded54	0.08492532
12	0xbe7ef080	-0.24896431
13	0xbeb9b9a5	-0.36274448
14	0x3c65efa7	0.014034188
15	0x3cc580c9	0.024109261
16	0xbd0e86f0	-0.034796655
17	0xbd35f797	-0.044425573
18	0xbe35a86f	-0.17740034
19	0x3e49e0b5	0.19714625
20	0xbe5fa630	-0.21840739
21	0xbe61321a	-0.21991768
22	0xbe5d5e76	-0.21618065
23	0x3eea6e01	0.4578705
24	0xbee2474c	-0.4419502
25	0x3e102e38	0.14080131
26	0xbd90b5cf	-0.07065927
27	0xbe00f127	-0.12591992
28	0x3ec5a71a	0.3860405
29	0xbe3a9189	-0.1821958
30	0x3dbf702c	0.09347567
31	0xbdcd6948	-0.100298464
32	0x3f01a274	0.5063851
33	0xbe766c80	-0.24064827
34	0xbef5bd28	-0.47995877
35	0xbbe5d703	-0.007014157
36	0xbd2750cc	-0.04084854
37	0x3e29158c	0.16512126
38	0x3df45191	0.1192962
39	0xbe6fc42f	-0.23414682
40	0xbe7f0ee0	-0.24908018
41	0xbde9bf76	-0.114134714
42	0xbda7aa2a	-0.08186753
43	0x3e903f4c	0.28173292
44	0x3e8a6723	0.27031812
45	0x3e3408bd	0.17581458
46	0x3e0b4582	0.13600734
47	0xbe8004a8	-0.25003552

fc1.bias f4 [4]
0	0xbdf6991f	-0.12040924
1	0x3e471213	0.19440489
2	0xbcaebe2d	-0.021330917
3	0x3dd850ce	0.10562287

fc2.weight f4 [4, 4]
0	0xbeb17fd6	-0.34667844
1	0x3f3dac35	0.7409089
2	0xbed2baa8	-0.41158032
3	0x3f1dde60	0.6166744
4	0x3ec7e97e	0.39045328
5	0xbe1b041e	-0.1513829
6	0x3ed7fb43	0.42183885
7	0xbe000f92	-0.1250594
8	0x3efab767	0.4896805
9	0xbe44137e	-0.1914806
10	0x3f02d5e6	0.51107633
11	0xbe233bd1	-0.15940787
12	0x3f13ca56	0.57730615
13	0xbe647df4	-0.22313672
14	0x3f1c4227	0.6103844
15	0xbe3d1ac3	-0.1846724

fc2.bias f4 [4]
0	0x3f10efe2	0.5661603
1	0x3deb7ad9	0.11498041
2	0x3e180333	0.1484497
3	0x3e2d751a	0.16939202

fc3.weight f4 [1, 4]
0	0x3f9ec140	1.2402725
1	0xbf1de9e9	-0.61685044
2	0xbf43a736	-0.7642702
3	0xbf67721b	-0.90408486
