Data/NN_weights.pt (torch, 2263 bytes, 5 tensors)

fc1.weight f4 [4, 12]
0	0x3f85de54	1.0458474
1	0x3eebf3ae	0.4608435
2	0xbe8c57d8	-0.2741077
3	0x3d82d90d	0.063890554
4	0x3e67edfe	0.2264938
5	0x3eb39067	0.35071108
6	0xbe394172	-0.18091372
7	0x3e4749ad	0.19461699
8	0x3d854c5e	0.065087065
9	0xbeda2000	-0.4260254
10	0x3e72293e	0.23648545
11	0xbe275282	-0.16340068
12	0xbec1aa40	-0.37825203
13	0x3e96619c	0.29371345
14	0x3e5518c1	0.20810224
15	0x3ddb1195	0.10696713
16	0xbe24a43f	-0.1607828
17	0xbf1129a9	-0.56704193
18	0xbc30be57	-0.010787568
19	0x3ddfcf48	0.10928208
20	0xbe26776d	-0.16256495
21	0x3e74e268	0.23914492
22	0xbe9b7155	-0.30359903
23	0x3e1a0dc3	0.15044312
24	0x3e9a783a	0.3016985
25	0x3eb33998	0.35004878
26	0x3d6819db	0.056665283
27	0xbf0acd46	-0.5421947
28	0x3e9fb13a	0.311899
29	0xbeefca05	-0.46833816
30	0x3e9d8e6e	0.30772728
31	0xbf65f80b	-0.8983161
32	0x3f41cc97	0.75702804
33	0xbdd0680b	-0.101760946
34	0xba0a0f80	-0.0005266592
35	0x3f476f6a	0.7790438
36	0xbf474ae7	-0.77848667
37	0x3daed7c1	0.085372455
38	0x3e5fafba	0.21844378
39	0xbe9a7472	-0.30166966
40	0xbe72a6c6	-0.23696432
41	0xbe9f02d0	-0.31056833
42	0xbe4fbb00	-0.20286179
43	0x3f5b68a9	0.85706574
44	0x3f47e178	0.78078413
45	0x3e9c50a1	0.30530265
46	0xbe26af55	-0.16277821
47	0xbea2aaa2	-0.31770808

fc1.bias f4 [4]
0	0x3e62fef6	0.22167572
1	0xbe56ab44	-0.2096377
2	0xbe207b7a	-0.15672103
3	0xbe21239a	-0.15736237

fc2.weight f4 [4, 4]
0	0xbf9058f9	-1.1277152
1	0x3f5e986b	0.8695132
2	0x3ef71df9	0.48265055
3	0x3f1360ca	0.57569563
4	0x3eef8ac7	0.46785566
5	0xbda70c28	-0.081566155
6	0x3f8a8028	1.082036
7	0xbf824665	-1.0177733
8	0x3e54a711	0.20766856
9	0xbeaa7f15	-0.3330008
10	0x3f16656c	0.5874851
11	0xbeecaccb	-0.4622558
12	0x3edccb01	0.4312363
13	0xbde51e50	-0.11187422
14	0x3f8232fc	1.0171809
15	0xbf75a3a2	-0.9595281

fc2.bias f4 [4]
0	0xbe8e9c5b	-0.27853665
1	0xbe1e5a50	-0.15464139
2	0xb9a24df7	-0.00030957136
3	0xba1bdb16	-0.0005945427

fc3.weight f4 [1, 4]
0	0x3fc8669b	1.5656313
1	0xbfc08ffa	-1.5043938
2	0xbf45f64d	-0.7732895
3	0xbfb5377c	-1.4157557
